best_model.pth (torch, 90470 bytes, 6 tensors)

fc1.weight f4 [128, 79]
00000000: 8a30 793d aa7b 9e3d fd3d f0bd 4d45 823e
00000010: aa66 c43c fcb4 033d 1c22 b2bc 8c7e 3c3d
00000020: 90c1 173f 1846 ba3e 0154 a53e 22bd 793c
00000030: 0f0c 92bd e9cc 4c09 7b3b cdbd 3192 e43e
00000040: 8132 043c 3a6e 2f3d 3b17 ab3d 8930 793d
00000050: 1cd3 b6bc 35c7 c73c a82f 243b 9e07 4c3e
00000060: ed39 9ebc 44b4 313e 24dc 8bbc 96b6 403e
00000070: 01f3 123d 8330 793d 774c 08bd 433c 023e
00000080: 8316 413e 9850 f809 5716 f23c d948 ddbc
00000090: c00e f588 3524 843d 2f7a af3d 863c a63d
000000a0: d660 543e 8930 793d 40b9 e506 0145 9e3d
000000b0: 26a1 e23d 7d07 f3bd 0bc1 043e b9ff 983e
000000c0: 67cb dd3d 2886 91be da9c 2a3e e9cd 723e
000000d0: 291b 7abe 2d61 9ebe e107 8c3c 8370 6d3e
000000e0: 14ac 058a 53a0 5ebe 7408 b5be 81dd afbd
000000f0: 9aac cb3e 6a43 78bc 70dc 4c3d 25e9 c3be
00000100: 5897 b63c fb94 84be e876 e63e a6f5 d63e
00000110: 2cb1 b33d 15fe 6d87 1499 f5bd 88e5 ba3d
00000120: 978c 0abd a4c5 adbe c656 db3d 6a4f 2c3e
00000130: d711 b33d 1494 0f3d 6a89 afbb 663a b63d
00000140: fccb f63d a906 733e cfd5 453e e507 46be
00000150: 452b 933d 9446 e33d eb22 613e 9bfb 8abe
00000160: 2708 b63e 784b 16be 02ff 9ebd b23f ac3e
00000170: 3252 aa09 445c 113c fded b43d deea c43d
00000180: d26c d43c 2e7a fdbd 8886 823d c17e d3bc
00000190: a9b7 a7bd 068f 4cbe 8042 453e 1823 c83d
000001a0: 1f84 813e 4e1f 0f3d f56a 61be 0543 18be
000001b0: c30c d73d 3b7e f93d 2d8b d2be cb39 0abe
000001c0: 70ac 5d88 eb13 033e f440 973d d831 eb09
000001d0: 78a8 b03d 26f3 0b3e 7837 a53d b6c6 1d3e
000001e0: 1838 9a3d 136b 1309 004a 253d 5ec9 4c3e
000001f0: 2875 373e d86f 84bd f667 a1be d3d9 4c3d
00000200: 0de9 a2bd 7c56 5fbe 02cc 273e 5280 d9bd
00000210: ff42 1fbe 5a00 3f3d 34a9 2c3e 08e8 b689
00000220: c15d da3e 9693 e53e 4cb3 3e3d dcc3 403e
00000230: 94bd 883e 1e44 213e c3b8 8ebd 7ef1 113e
00000240: 443c a73e 3961 303e 9aff 933e 697b 253e
00000250: 33e5 0209 95e7 923e f18f 93be b46a c5bd
00000260: 8bc4 233e 8cb2 983e eba8 80be 399f 693d
00000270: a5c2 59bd 5d1a 853d 6ca6 623d c1cc 46be
00000280: efda 4b3e 3b24 b73d a61e 1e3c eb0e 88bd
00000290: 671d 353d 6cc3 22be 8af0 c73c 7e6d 36be
000002a0: cabb f1bd 5a7f eebd 68ce 90be 4653 7c88
000002b0: 8daa 6f3e 2135 41be ada2 b7bd 0a9f a93d
000002c0: 0831 503e 5052 f23d 4c55 a33d 6cf4 a3bd
000002d0: 42b2 58be a82e 07be a69a 89bd c773 65be
000002e0: 36ea 943e f8ff 80be 012c 0bbe 30ef 8e3c
000002f0: 8a6e 31be bdae ef3d 75e6 993c b486 b088
00000300: a70c d13d 39c6 f23d 3d34 3b09 2765 81bc
00000310: 615d 173d 3798 b0bc 1759 283e 0179 f63d
00000320: 13b6 7709 231d 233e 2f07 66bd 0486 503e
00000330: b558 c93d fb99 1bbe 5a70 01be 741d 40bd
00000340: 98fc 5bbd 6a5d c43d 3d0d 693e f883 c33e
00000350: 0f71 a3bc 2304 c53d db29 498a f4bf 9b3e
00000360: e236 093f 8dc3 153e 95bc 03bd de71 0c3e
00000370: 392c 313e 7f20 9a3e 6c25 97bd cc2c bf3e
00000380: 33f4 05be f1db aebe 3cd9 7fbd 402f 1106
00000390: 922f 3f3e 4ad9 de3e 5237 1a3e f60f 6e3e
000003a0: 1eeb 763d 0dc5 8ebe ef3e d83a 0f68 8c3d
000003b0: 70ac 233e b362 b4bc ff8b 05be b026 7a3e
000003c0: 08c9 0abe ca9d ebbb f823 ffba 0340 e53d
000003d0: 3104 453c a500 aabe 0adf af3e 408f 86be
000003e0: 58f8 393e 41d5 c9bd e180 6189 3f88 afbc
000003f0: 5a0e 50be 6481 7c3d 297c f13d fad1 b83d
0.060837306 0.07738431 -0.11730573 0.25443497 0.023974735 0.032155022 -0.02174478 0.046019122
0.5927973 0.36381602 0.32290652 0.015242847 -0.07131206 2.4651955e-33 -0.100211106 0.44642785
0.008068682 0.04282973 0.0835404 0.060837302 -0.022317462 0.024386982 0.002505282 0.1992478
-0.01931473 0.17353922 -0.017072745 0.18819651 0.035876278 0.06083728 -0.033276048 0.127183
0.18856244 5.977962e-33 0.029551668 -0.027012276 -1.4748869e-33 0.064522184 0.085682265 0.08117013
0.20740065 0.060837302 8.6412426e-35 0.07728005 0.11065893 -0.11866663 0.12964265 0.298826
0.108298115 -0.28422666 0.16661397 0.23711361 -0.24424423 -0.30933514 0.0170936 0.23187451
-6.436081e-33 -0.21740846 -0.35358012 -0.085871704 0.39780122 -0.0151527915 0.050014913 -0.38263813
0.022288963 -0.25894913 0.45012593 0.4198429 0.08774027 -1.7904566e-34 -0.11992088 0.09125811
-0.033825483 -0.3393985 0.1070991 0.16827169 0.08743637 0.035053328 -0.005356957 0.08897857
0.12050626 0.2373301 0.19319843 -0.19338949 0.071859874 0.11097446 0.21985976 -0.27145085
0.35553095 -0.14677227 -0.07763483 0.33642346 4.1003307e-33 0.0088720955 0.08834455 0.0961511
0.025930796 -0.123768196 0.06373316 -0.025817277 -0.08189327 -0.19976434 0.19263649 0.097723186
0.25296113 0.034941964 -0.22013457 -0.14869316 0.10500481 0.1218228 -0.41121808 -0.13498609
-6.6707468e-34 0.12800567 0.07385436 5.6621065e-33 0.08625883 0.13666973 0.080672204 0.15407833
0.0753023 1.7744827e-33 0.040353775 0.1999869 0.17915785 -0.06466645 -0.31524628 0.05001242
-0.07954607 -0.21810335 0.16386417 -0.10620178 -0.155529 0.046631195 0.16861421 -4.4033107e-33
0.42649654 0.44839162 0.04655771 0.18824714 0.26707137 0.15748641 -0.06968834 0.14252278
0.32663167 0.17224588 0.28905946 0.16160358 1.575595e-33 0.28692308 -0.28820756 -0.09639493
0.15992944 0.2982372 -0.25128874 0.057036612 -0.053164143 0.06499169 0.055334494 -0.19414045
0.19907735 0.08942457 0.009650862 -0.066434704 0.044217493 -0.1589486 0.02440669 -0.17815205
-0.11803396 -0.11645384 -0.28282475 -7.593138e-34 0.23404904 -0.18867923 -0.08966575 0.082822874
0.20331204 0.11832106 0.079752535 -0.08005604 -0.2116175 -0.13201392 -0.0671895 -0.22407447
0.2908494 -0.2519529 -0.13591005 0.017448038 -0.17327324 0.117032506 0.018786648 -1.0624283e-33
0.10207491 0.11854214 2.2533869e-33 -0.015795304 0.036954287 -0.021556957 0.16440235 0.120347984
2.9817154e-33 0.15929084 -0.056159195 0.20363623 0.09831373 -0.15195458 -0.12640515 -0.04690309
-0.05370769 0.0958813 0.22758956 0.38186622 -0.019951371 0.0961993 -9.68567e-33 0.30419886
0.5359937 0.14625378 -0.032162268 0.13715312 0.17302026 0.30102918 -0.073801845 0.37338865
-0.13081436 -0.34152177 -0.06246303 2.7306183e-35 0.1867049 0.43525153 0.15060166 0.23248276
0.06028282 -0.27884713 0.0016498248 0.06855785 0.15983748 -0.02201972 -0.13041686 0.2442882
-0.1355325 -0.007190441 -0.0019465676 0.1119385 0.012024925 -0.33203617 0.34349853 -0.26281166
0.18161142 -0.09855128 -2.7143988e-33 -0.021427272 -0.20317975 0.061646834 0.1179126 0.09024425

fc1.bias f4 [128]
00000000: f26e e63d 243f b53e 8cbd ac3e 2e36 fc3d
00000010: f958 e33d 4b0f 9d3e bc0c 0c3e 2e1f 913e
00000020: 286e 903e c530 5d3e 0187 4d3e ab01 6a3e
00000030: 4f1d 533e 0fbc 923e 21c3 863e b885 a93e
00000040: 721e 013e 23a6 f03d 748e 053e b2c1 133e
00000050: 32ac 1b3e 6d2b 2d3e a551 003e 62ab fd3d
00000060: 32f9 4a3e ba29 6f3e ef56 2d3e d434 083e
00000070: d1cd 813e 86fd 103e e933 ef3d 54f3 873e
00000080: 9ae3 a53d 052c 3f3e 9c95 003e 64f4 913d
00000090: e65a 693e 0f87 873e 17df b63e 86ab 883e
000000a0: 9391 f03d 4af1 3d3e ea73 153e 7332 6a3e
000000b0: 1bb3 2d3e 88f8 683e 34ad 913e 1620 b13e
000000c0: 4d37 703e 5379 123e 8d77 503e 537c a63e
000000d0: a334 573e 7ee4 213e 981a 683e 31b4 473e
000000e0: 40f2 1c3e 5e47 663e e004 193e 0278 eb3d
000000f0: fb1d 8a3e b6d0 3e3e 81de 4a3e 26a1 6c3e
00000100: ef56 2d3e 5c62 0c3e b0db bd3e cdad 8b3e
00000110: 6a05 683e 5141 b03d 46d7 053e 7e8e 113e
00000120: c305 713e 81f5 2a3e f089 1b3e 499e f63d
00000130: b756 8f3e 4e77 173e 3914 2b3e 1985 993e
00000140: b212 813e 9668 e13d 88fc 2a3e b462 1d3e
00000150: 2d1f fe3e 3f87 e73d 1ee9 843e 4aa4 1d3e
00000160: e8c2 253e d7bb 613e 0449 b13d 965b 9c3e
00000170: 92ae 123e 3660 383e 75e6 ac3e 80f1 2d3e
00000180: cd73 f73d e197 343e 3664 2d3e 8b88 9a3e
00000190: fb22 513e 396f 7d3e 1ba6 3d3e d876 603e
000001a0: ad01 c13d 71d0 393e 0a72 e13d bba5 543e
000001b0: ec67 143e c46e 8f3e 5bef 3b3e f8dc 023e
000001c0: 62b4 7c3e 9b91 983e 297b b83d 38ac 1c3e
000001d0: b1b0 423e f274 863e 982b 8f3e 988a 683e
000001e0: 689b 203e 2873 cf3e 8fcf 7c3e 1390 673e
000001f0: f348 4e3e 1e3b 083e bc07 4a3e 21d2 103e
0.1125163 0.35399735 0.33738363 0.123150215 0.111009546 0.3067573 0.13676733 0.283441
0.28209043 0.21600635 0.20071031 0.22852199 0.20616649 0.28659102 0.26320747 0.33109832
0.1260927 0.11750438 0.13042623 0.14429358 0.15202406 0.16911097 0.12531145 0.12386204
0.19821623 0.23355761 0.16927694 0.13301402 0.25352338 0.14159212 0.11679823 0.26552832
0.08100052 0.18669136 0.12557071 0.07126692 0.22788581 0.2647023 0.3571708 0.26693362
0.11746516 0.18549076 0.14594999 0.22870807 0.16962855 0.22751057 0.28452456 0.34594792
0.23458596 0.14304094 0.20358105 0.32516727 0.21016173 0.15809819 0.22666395 0.19502331
0.15326786 0.22488162 0.14943266 0.11497499 0.26975998 0.18634304 0.19811441 0.23108348
0.16927694 0.13709396 0.3708167 0.27281037 0.22658315 0.08606208 0.13070402 0.14214513
0.23537354 0.16695215 0.15189338 0.12041909 0.27995846 0.14791605 0.16706933 0.29984358
0.25209576 0.11006276 0.16697896 0.15369684 0.4963316 0.11305093 0.25959104 0.15394703
0.16187632 0.22044311 0.08656505 0.30538625 0.14324406 0.18005452 0.33769575 0.16986656
0.12082634 0.17636062 0.16932759 0.301823 0.204235 0.2474946 0.18520395 0.21920335
0.09424148 0.1814592 0.11008079 0.20766346 0.14492768 0.28014195 0.18353026 0.12779605
0.24678186 0.29798588 0.09007866 0.15300071 0.19012715 0.26261097 0.27962947 0.2270912
0.15684283 0.40517545 0.24688552 0.22613554 0.20145015 0.13303801 0.19729513 0.14142658

fc2.weight f4 [64, 128]
00000000: 29b2 b2be e227 043e c21b af3e 16cd 4c3e
00000010: e2f3 1d3e 371f 62bd 9cc6 8e3c 5a3a e13d
00000020: a5b8 46bd 6e64 223e e5a8 76bd c663 ae3e
00000030: aadc 49be 7c01 a7bd 25de 053e d895 a03e
00000040: 9c1f 47be 2530 27be ab9e 00bb c9f0 d03d
00000050: 928b 793e cfae 4dbe ff40 95bd bccf 4b3e
00000060: 3478 803c 446c c2bd 492d 5a3e 599e 883d
00000070: 1986 9abd 6b97 12be 4f33 64be 9729 ba3e
00000080: ce5d 4fbc 011c 393d 57bc 6bbe d518 46bd
00000090: 8375 353e 552d f3bd 25b5 b83e 0efc e23d
000000a0: 610b 183d 5ad7 93be c253 3cbd 123a ed3d
000000b0: af4a 3f3e 7e37 843e 0d04 903e e883 103f
000000c0: ddda cebd 08c1 4f3e bf00 60bd 88c3 a33e
000000d0: fafc fe3d ce3f d13e 2cba 3f3e badf 9f3d
000000e0: 4008 993e e1e7 6c3e c781 edbd 74e8 bebd
000000f0: e792 5f3e ebc1 67be 010f 4b3d 7bb4 99be
00000100: b612 5f3d 0ef4 473b 3851 ce3d f40a 193e
00000110: 7bb5 523c aaf6 51be 5fd5 623e 05aa a0be
00000120: 28ea b0bd b12d bc3d 6451 913d 9399 ce3c
00000130: 5d15 09bd 2cd1 49be a434 50bd a8b7 b33e
00000140: bbd1 af3d 15f1 b3bb 4888 ed3d 2a98 553d
00000150: 78eb dd3e 1abb c03d bcb1 d83d c065 fabd
00000160: 65b6 55bd 891f 3cbc b0b0 a7be a71b e83d
00000170: 9467 1d3e 86f8 763e 8fe4 233e 384b 08be
00000180: a309 123d 61ef 2f3e 3825 443e 82bc 20be
00000190: d343 2f3e 35de 6d3e ed13 873d 1718 81be
000001a0: 59c1 f43b 6fed 313e 151c 6bbd a934 2f3e
000001b0: 53da bc3d c220 5e3e 9a83 af3d 20df 293e
000001c0: ef44 97be 2cd7 90bb 0e8f 313e 4830 553e
000001d0: db4a 2fbe 781b c63e 07d7 8d3e ef8a 7f3e
000001e0: 7799 013d 6dbf 943d 2ca0 853e 79ed 9f3e
000001f0: 6e2e cc3d 8a04 b1be ad19 163c 20a3 023e
00000200: 6c8b 043e 40c4 4abe 0a15 963d dd6a 383e
00000210: 0b3c 2dbd fd8e 123e 92ea 71be 25bf 043e
00000220: e31b ffbc 827f 49bd 6140 973e 4b75 983d
00000230: 776d 3dbd 6325 d7bd 8231 423d 13df 00be
00000240: 2ef2 07b9 26ee 73be cec1 d43d b6e6 c43d
00000250: 10bc d73d 3477 793e 7049 693e 51e2 e4ba
00000260: 28e2 263e 7eb4 e6bd d99a c03d 748c 483e
00000270: 1945 76bd e6e2 23bb 60db 47bd 4fa4 10bd
00000280: 15d7 a53d 9d01 f93d e6e7 bfbd bd62 613e
00000290: 04d4 a6bc 2dba c13d 1cc1 4f3e fcf4 1d3e
000002a0: 8192 373d 4f3f bcbc 1f5c d43d 84fe 7fbd
000002b0: b645 5f3e 582f 84bd 978f e6bc 8585 0d3d
000002c0: 44bf e0bb 328d 50bd 1123 1c3e c967 1ebe
000002d0: 9e6e 953e 481e 9a3e 19ce 623e f870 953e
000002e0: 6fd4 74bd b3d7 0ebe fc77 ca3b f4df 453e
000002f0: f2c4 f8bd 1940 643b c455 e23d 62b1 763d
00000300: 5c0d 8bbe fb65 3c3e 0e7a 43be cf1f c33c
00000310: de11 883e 1c12 f53d ffe0 c43c 60f3 d93e
00000320: a163 fa3b 4b5f 2e3e cee3 9f3c 6fe8 fdbc
00000330: 488d e7bc 1985 2d3e b365 c33d e408 273e
00000340: 7564 f23d 5151 793c 871c 99bd ac98 6f3e
00000350: 6c87 e8bb e3d0 0c3e 599b efbd ea37 873e
00000360: 7699 763d 96a9 25be 376b 123e 2921 6f3c
00000370: a3c5 4d3e 133a a43c 6edc 2fbe 39a0 4fbe
00000380: c3a4 383e 9d2f 993d aaaa 1dbe 4f42 d7bc
00000390: 2612 ceba 8045 21bd 7121 d53d f6ae 01be
000003a0: c943 5cbe 24ae c93d 4589 3e3e 53fa 3c3e
000003b0: 15ed c63e 8763 5a3d 4e07 bd3d 8410 56bd
000003c0: 96f0 f63d 7d79 3dbe 467f 7cbd 2f0e 9c3e
000003d0: ca46 c2bd 7931 e43c b1f2 793e fc0b b43d
000003e0: f36c 09be cdde c2bb efba 893e 64e3 6f3e
000003f0: 13f2 f23c 33c0 72be 3ff4 573d 45fa 4ebe
-0.3490155 0.12905839 0.34200865 0.20000109 0.15425065 -0.05520555 0.017428689 0.10997458
-0.048515934 0.15858623 -0.060219664 0.34060496 -0.19713083 -0.0815458 0.13073023 0.31364322
-0.19445652 -0.1632696 -0.0019625823 0.10202176 0.24369648 -0.20086215 -0.07287788 0.19903463
0.015682317 -0.09493306 0.21306337 0.066708274 -0.07545108 -0.14315574 -0.22285198 0.36359856
-0.012656642 0.045192722 -0.23021065 -0.048363525 0.17720608 -0.11873881 0.36075702 0.11083232
0.037120227 -0.28875238 -0.045978315 0.11583342 0.18680833 0.25823587 0.2812809 0.5645127
-0.101003386 0.2028848 -0.05468821 0.31985116 0.12450595 0.40868992 0.18723363 0.07806344
0.29889107 0.2313533 -0.11597019 -0.09321681 0.21833383 -0.22632568 0.049574856 -0.30020508
0.054461204 0.0030510458 0.10074085 0.14945585 0.012860651 -0.20504251 0.22151707 -0.31379715
-0.08638412 0.091884024 0.07095602 0.025219714 -0.03346764 -0.19708699 -0.050831452 0.35101056
0.08584925 -0.0054913857 0.11598259 0.052147068 0.4334371 0.09410687 0.10580775 -0.122264385
-0.052175898 -0.011482128 -0.3275199 0.11333399 0.15371543 0.24118242 0.16005157 -0.13309944
0.03565372 0.1718116 0.19154823 -0.1569691 0.17115717 0.23229297 0.065955974 -0.25213692
0.007469338 0.1737573 -0.057399828 0.17109932 0.092213295 0.21692184 0.08570023 0.16589022
-0.2954478 -0.0044201817 0.17339727 0.20819199 -0.17118399 0.38692832 0.27703115 0.24955343
0.031640496 0.07263074 0.26098764 0.31235865 0.09969793 -0.34573776 0.009161395 0.1275754
0.1294381 -0.19801426 0.07328232 0.18009515 -0.04229359 0.14312358 -0.23624638 0.12963541
-0.031141227 -0.049193867 0.29541305 0.07444247 -0.046246972 -0.10505178 0.047410496 -0.12585096
-0.00012964822 -0.23821315 0.10388528 0.09614317 0.10533917 0.24361879 0.2278192 -0.0017462467
0.1629721 -0.11264895 0.09404535 0.19584829 -0.06012449 -0.0025007068 -0.048793197 -0.035312947
0.08097664 0.12158511 -0.09370403 0.22010322 -0.020364769 0.09459338 0.20288509 0.15425485
0.04481745 -0.022979407 0.10369133 -0.062498584 0.21803936 -0.064543426 -0.02814464 0.034551162
-0.006858738 -0.050915904 0.15247752 -0.15469278 0.29185957 0.30101228 0.22148933 0.2918775
-0.059772905 -0.1394947 0.006178854 0.19323713 -0.12146939 0.0034828244 0.11051515 0.06022776
-0.2715863 0.18398277 -0.19089529 0.023818878 0.26576132 0.11966345 0.024033068 0.42568493
0.007641271 0.17028539 0.019517805 -0.030994622 -0.02826561 0.16945304 0.09540882 0.16311985
0.11835567 0.015217141 -0.07476144 0.23398083 -0.0070962217 0.13751559 -0.11699552 0.26409847
0.060204946 -0.16177973 0.14298712 0.014595308 0.20094924 0.020047223 -0.17173931 -0.20275964
0.18031602 0.07479785 -0.15397134 -0.026276736 -0.0015721961 -0.03937292 0.10406769 -0.12664399
-0.21510233 0.09847668 0.18607052 0.18454866 0.38852754 0.053317573 0.09229909 -0.052261844
0.12057607 -0.18503375 -0.061644815 0.3047957 -0.09486158 0.027855622 0.24408986 0.08791348
-0.13420467 -0.00594697 0.26900432 0.23426586 0.029656446 -0.2370613 0.052723166 -0.20212658

fc2.bias f4 [64]
00000000: 28a0 6b3e 8d73 be3c 8411 7d3d 3185 2c3e
00000010: 2f8d fa3d 7ce4 853d 00c7 b13d 58b3 28bc
00000020: 2f90 1f3e 4917 4e3d 29b3 003d 485d 803d
00000030: 1f41 973d aa6f 6f3e 7b49 79bd 2e8a adbd
00000040: 868d 223c 4b21 4e3e 37fa 6a3d 97d0 afbd
00000050: ea16 d53d f9c2 6fbc cf76 513d c38b bbbc
00000060: ac00 db3d 7159 d53d 8723 dd3d 57e7 20bd
00000070: f000 efb8 062b 9fbc ac42 1b3c 98c6 c23d
00000080: 80dd aabd c32f fe3c ab9e 8e3d 15c9 95bd
00000090: b986 f63d 4244 5cbd 7a3c 4f3e edca 423d
000000a0: 8d23 1a3e 5360 083d e3e1 aebd 650c e63d
000000b0: 0317 b8bd 3078 053e 62ca 66bd 0f1e a3bd
000000c0: a0ac 30bd 3c5e 67be f9d5 273e 22e6 4bbc
000000d0: 92c4 35bd 6345 fe3c 8906 be3d d229 163d
000000e0: 36b6 ba3d dde2 573e 0973 9cbd f69e fcbc
000000f0: 40b6 a63c e294 0a3e 4d21 2b3d 3747 7e3c
0.23010314 0.023248458 0.061784282 0.16847683 0.1223396 0.065377206 0.08680534 -0.010296665
0.15582345 0.050315175 0.03142086 0.06267792 0.07385468 0.2338244 -0.060861092 -0.08473621
0.009921437 0.20129888 0.05736753 -0.08584707 0.10404761 -0.014633887 0.051138695 -0.022893792
0.106934875 0.1041745 0.10797792 -0.039283123 -0.00011396583 -0.019429695 0.009476345 0.09510535
-0.08343029 0.031028634 0.06963857 -0.07313744 0.12037415 -0.053776033 0.20237914 0.047556806
0.15052624 0.033294987 -0.08539178 0.11232833 -0.08988764 0.13034129 -0.05634535 -0.079647176
-0.043133378 -0.22594541 0.16390218 -0.012445005 -0.044376917 0.031038946 0.0927859 0.036660977
0.09116785 0.21082635 -0.07639129 -0.030837517 0.020350575 0.13533357 0.041779805 0.015519909

fc3.weight f4 [46, 64]
00000000: 3d15 0f3e 8d23 91bd 33c7 253e dce0 093d
00000010: ade5 75bc 2e4b 72be e3d3 ccbd ad98 843a
00000020: 9b5c d5bd c9d6 da3d cf6b 0f3e ab96 0abe
00000030: 109a 93be 0bd4 a03c 0875 9ab7 91d4 643c
00000040: 65df 2abe 5d6e 0fbd bb5c 62be 1578 4bbe
00000050: 4f0e 3d3b 40ae aabd cdd5 d13d f332 213a
00000060: 48a5 b33c 0bf6 a4be 6bb3 2cbd 00f6 a7be
00000070: 4710 740b 486f 43bd 9dd2 8cbe e13e 58be
00000080: f151 293c 3f43 eebd 567e 07bc ca28 9d3a
00000090: 4771 bb3d dc59 36b9 f961 37bd 819c 40bc
000000a0: 1a87 c5bc e793 1b3e 41f6 9fbe a2a1 20bd
000000b0: 8d8e 8cbe 505e 3fbd 1502 5cbc 758a 9cbe
000000c0: d46d fe3c ee31 103e 05d8 f33c c054 0f8d
000000d0: 9664 0293 722e 193d 85ab 223d c32d 483c
000000e0: 5f8f 82bd e6b6 fa3c 4fdb 143e f1f5 393e
000000f0: 067c c8bd 3e61 61be 38e9 31be 78af ccbc
00000100: 981b 70bc 94a6 5c3d e4de 6d3d cc0f 09be
00000110: e8ef a6bd a62c 7b3d 962e 0bbf 3bec 8db8
00000120: 0af2 aabd 0964 d4bd 621d 01bd 4e68 333e
00000130: db35 373d 0e61 983d d171 8836 abfe 05bd
00000140: 07b3 0fbe bbc7 08be c05e 15be cb32 5c3c
00000150: 4126 35be 813d b23d f401 743d 43e9 5a39
00000160: 1e0d 063b 6063 b13d 8648 65bf bcfe 06bf
00000170: 0782 178b c66d f7bc 9772 b8bd 4a29 4dbe
00000180: 2f7a 293c b5c6 8fbc d028 7ebc 8b7e 81b9
00000190: 5d66 513c ef8d 8137 9b65 cbbb 87b1 c2bd
000001a0: 1fed a23d 4732 e03d 6879 523e b91b 23be
000001b0: 225c 41bc b2fc f1bc 7a0b 96b7 a152 b0be
000001c0: 050f 393c d14f 19bf ac2a c4be 3c8e e38a
000001d0: ebce 5a8e 7759 ed3c 7835 123e b4b5 66be
000001e0: b605 bcbd ac51 c63b f773 20be 1e9e 0d3c
000001f0: 667f a53c 40ce 80be 9b72 a43b 712b 2abd
00000200: ab9f 333d 4d3b 0c3d 6b96 573e af4e 783e
00000210: e69c 07bd 5985 19be 191b 7cbd b142 deb7
00000220: c9da b03d ddcc f33d 82fb adbe 74ca 033e
00000230: fe52 11bf fb63 183d bff3 43b5 eadd 0e3d
00000240: ed00 80be b4fd aabd f8e9 3b3e 4729 27be
00000250: bd44 20bd e612 c1be 9600 87be 502a dc39
00000260: 4708 6f3d 098c 02bf f1e3 06be dbc7 23be
00000270: d187 5d0b 5e6b 12bb 4f73 723e 33f8 aabe
00000280: f794 383e 324a e7bd 3488 4d3e 03bd 2eb9
00000290: 3bfb f3bc faf9 11b8 0f3b 1e3d bde0 00bf
000002a0: 0b7a 65be 61ed 29be d4fa d7be 5c54 85be
000002b0: 1644 e7be 78e2 593e 2aa8 743b 3d43 12bc
000002c0: 7b46 8b3d d4ea 88be b48d 96be 5ffc a08a
000002d0: 10dd 920f a542 a53d ff6b 4f3e 4ceb 6cbd
000002e0: 031e febd 07f8 48be 78b5 b3be 0282 8fbb
000002f0: 3c3f 0f3d 967c 133e aba2 dcbe c676 01bd
00000300: 730b 203e 011f 28bd 99ac e2bc d876 96bd
00000310: 4424 cabd b1ef 3bbe 6fc8 3ebe fb84 2aba
00000320: 5ddf 01bf 6055 a9bd 64ee 02be daf2 23bd
00000330: bb05 273d 3ec9 993e 5f89 84b6 695f e4ba
00000340: 2c68 883c 152a 1cbf bf8c 7dbc 8e3d ab3c
00000350: d7bc 2ebf bf61 22bf 4a29 033e a3da c2ba
00000360: 450d 213e 6217 42be 0904 15bf 31dd c0be
00000370: 268b 8b0b 4a88 973b be48 fcbe e4da 7bbb
00000380: acd2 933d 179f 64bb 38f9 243e d3e7 0339
00000390: 0dfd 45be 91c6 2d37 2a29 5e3e 3c1c 21be
000003a0: fe67 8b3d d605 a0bc 9174 543b 42ee c73d
000003b0: a9cd 02bf 017e f6bc 2e17 fbb8 15c4 92be
000003c0: f883 fdbe ffe7 11bf 415d aebd 0023 a38a
000003d0: 7517 ab0f 8831 79bd e7d5 b13d 437b a33c
000003e0: 35a2 23be 83ba ee3c 87e1 ddbd 2fd2 fbbd
000003f0: 3130 6dbd bf39 663e 18f0 febe e516 b1bd
0.13972946 -0.07086859 0.1618927 0.03366171 -0.015008372 -0.23661491 -0.10001352 0.0010116302
-0.10418054 0.10685498 0.1400597 -0.13534038 -0.28828478 0.01963236 -1.8412728e-05 0.013966695
-0.16686781 -0.03501736 -0.22105686 -0.19870026 0.002884764 -0.08334017 0.102458574 0.00061492546
0.021929398 -0.32218966 -0.042163294 -0.3280487 4.7004936e-32 -0.047713548 -0.27504435 -0.21117736
0.010334478 -0.1163392 -0.008269867 0.0011990306 0.09152465 -0.00017390348 -0.04477117 -0.011756063
-0.024112273 0.15193139 -0.31242564 -0.039216645 -0.27452508 -0.046720803 -0.013428231 -0.30574384
0.03105823 0.14081547 0.029766092 -4.416729e-31 -1.64579e-27 0.03739781 0.039714355 0.012217942
-0.06375002 0.03060479 0.14536785 0.18160225 -0.097892806 -0.22009751 -0.17374122 -0.024986014
-0.014655016 0.0538698 0.058073893 -0.13384932 -0.08151227 0.061321877 -0.5436796 -6.767405e-05
-0.083469465 -0.10370643 -0.031522162 0.17520258 0.044729095 0.07440387 4.066366e-06 -0.032713573
-0.14033137 -0.13357441 -0.14586926 0.013439844 -0.17690374 0.08703137 0.059572175 0.00020876997
0.0020454596 0.086615324 -0.89563787 -0.52732444 -2.9179364e-32 -0.030203711 -0.09006231 -0.20035282
0.010344072 -0.017550806 -0.01551266 -0.0002469908 0.012780753 1.5444091e-05 -0.0062071807 -0.09506517
0.079553835 0.1094709 0.20554125 -0.15928544 -0.011801751 -0.02953944 -1.7886738e-05 -0.3443804
0.011295085 -0.59887415 -0.38313806 -2.1912807e-32 -2.6970202e-30 0.028973324 0.14278209 -0.22530252
-0.09180777 0.0060522165 -0.15669237 0.008643655 0.02020235 -0.25157356 0.005018545 -0.041545335
0.043853443 0.03423624 0.21053474 0.24248765 -0.033108614 -0.14992274 -0.06154928 -2.6495518e-05
0.0863548 0.11904309 -0.33980948 0.12870198 -0.5676726 0.037204724 -7.299786e-07 0.034879602
-0.25000706 -0.08349171 0.18350971 -0.1632434 -0.039128054 -0.3770973 -0.26367635 0.00041993195
0.058357503 -0.50994927 -0.1317289 -0.15994208 4.266523e-32 -0.0022341828 0.23676799 -0.33392486
0.18025576 -0.112934485 0.20071489 -0.00016664345 -0.029782882 -3.4803503e-05 0.03863054 -0.50342923
-0.22409837 -0.16594459 -0.42183554 -0.26040924 -0.45169133 0.21277797 0.003733168 -0.008927164
0.068005525 -0.2674166 -0.29404986 -1.5502371e-32 1.4481862e-29 0.08069352 0.20256041 -0.057841584
-0.12408068 -0.19625865 -0.35099387 -0.004379512 0.034972414 0.14402995 -0.43092856 -0.03160741
0.15629368 -0.041045193 -0.027670192 -0.073468864 -0.09870198 -0.18353154 -0.18631147 -0.0006504801
-0.5073145 -0.08268237 -0.12786251 -0.040026523 0.04077695 0.30036348 -3.9498987e-06 -0.0017423454
0.016651236 -0.6100171 -0.015475451 0.020903375 -0.68256897 -0.634304 0.1280872 -0.0014866184
0.15727718 -0.18954232 -0.5820928 -0.37668756 5.375022e-32 0.004624401 -0.49274248 -0.003843003
0.07217917 -0.0034884864 0.16110694 0.00012579495 -0.19334812 1.0357836e-05 0.2169539 -0.15733427
0.06806944 -0.019534033 0.0032418112 0.09762241 -0.5109506 -0.03008938 -0.0001197293 -0.28665224
-0.49514747 -0.5699462 -0.085138805 -1.5709495e-32 1.6870937e-29 -0.060838252 0.08683377 0.019956237
-0.15979846 0.02914167 -0.108340316 -0.12295949 -0.057907287 0.22482966 -0.49792552 -0.08646945

fc3.bias f4 [46]
00000000: 0940 823d de79 77bd afd3 db3b c32b 133e
00000010: 33b9 d33c bad7 6e3c 8df7 63bd b660 8f3d
00000020: 5a71 50bd 4919 623d 5c41 c2bd 36e6 0c3d
00000030: 445d edb9 6e54 5ebd d546 b73d 7af8 183e
00000040: 566a d7bd 3ec4 d63c 5a91 9c3d bbc4 653a
00000050: fbe0 8fba 41e5 b5bd d60c a4bd bb51 593d
00000060: 6860 27be 824a d2bd 71e4 6a3d e206 173e
00000070: 9670 dabd b27c c2bc 97c9 89bd c413 2ebb
00000080: 7ae9 1a3d c15e bf3d fff6 46bd 2e9f 943d
00000090: 089f 373d 0c59 203d dd66 0dbb 9c3b 16bd
000000a0: b9f4 4ebd c809 983d a601 d03c a481 cabc
000000b0: fed6 c63d ad8a 96bd
0.0635987 -0.060418956 0.0067085843 0.14372163 0.025845146 0.0145778 -0.055656005 0.07000868
-0.05088935 0.055199895 -0.094851226 0.034399234 -0.0004527365 -0.054279737 0.08949057 0.14938536
-0.10518329 0.026216622 0.07644911 0.0008764972 -0.0010977084 -0.08881617 -0.08010261 0.05305646
-0.1634537 -0.102681175 0.057346765 0.1474872 -0.10666005 -0.0237411 -0.06727903 -0.0026562074
0.037820317 0.09344245 -0.048575398 0.072569236 0.0448294 0.03914742 -0.0021576204 -0.03667794
-0.050526354 0.074237406 0.025391411 -0.02472002 0.09708975 -0.07350669
