data.pth (torch, 86634 bytes, 6 tensors)

fc1.weight f4 [128, 76]
00000000: 56a7 9b3d be3d a83d a8de 01be b884 efbd
00000010: c4f4 2d3d a70a 673e fde3 7d3d babb 873e
00000020: 3e3a 2ebd bfa7 253e a6c9 c23d bf63 94bd
00000030: f85b 9f1e ef0c 603e c035 3cbd 7ad1 883d
00000040: a056 13bd b794 e13c 283b 003e aae0 0d3e
00000050: d5fd 073e 2c3e f3bc 6bed ad3e 2fc7 96bc
00000060: 00a8 1bbc 0cb8 8c3b 3bb7 473d a87e cdbd
00000070: 4a18 aa3d 74b9 163e 9037 4d9d 8d93 ca3d
00000080: 242f 0abd eebb 3e17 bd28 cb3d 602c 903d
00000090: f05f 133e 119c 003e 4c66 103e 7fd9 f315
000000a0: 7816 ed3d 83c6 613e a667 d4bd 95c3 f33c
000000b0: 406e 303e 015b 893e 39fc abbe a1eb 563e
000000c0: 5311 6bbe c4aa 813e f493 223e 6b68 a2bc
000000d0: cf28 493e 4557 1dbd db6a 6e3d f870 4e3e
000000e0: 32ea 02bc 1878 903a d1d5 8f3d 407f db3d
000000f0: db60 62be 7929 55bd 48b1 63be c59f b4bd
00000100: 54e5 9fbd a08e 9e3d 888c 8f1b c9ee b5bd
00000110: c961 803d a6de afbd 0af5 c3bd 66a6 ee3c
00000120: bd78 40bd 69a5 ad3a a6bd 003c 3791 e5bc
00000130: 6dbc 603c 9b44 0d3e 8c47 833d 1b93 b2bd
00000140: 6bd5 f83d d068 033e d822 f93d ed76 4f3e
00000150: 4501 6cbe e21a cb3d ebc5 0ebe bb46 b23d
00000160: 5285 cb9b bbaf 20bd 1471 35bd 5516 303e
00000170: 514c b83c 6c5f 2dbc 56cf ae3a 43e4 049e
00000180: 84dc 7f3d 2bf9 283e c93b 9b3e 0030 51be
00000190: e09e 9d3e a1a5 073e d9b5 603c cff8 c53d
000001a0: d316 babc 88ff b03c ca61 0818 f619 bbbd
000001b0: b9a9 c3bc b81e 7099 23b7 b5bd 4042 b4bd
000001c0: 5f32 b6bd 2924 0e3e 965f 603c 3b09 349c
000001d0: a482 dd3d 14ac 6a3e 7e0d bebd 9a12 c93c
000001e0: 4d8b 983d d41b 643e 8763 6dbe 1bae 413e
000001f0: 0130 1dbe 5c9a e8bc 794e a6bd ed3c 5d3c
00000200: c980 033e f3c1 673c a570 653e 8950 203e
00000210: e55a 6d3c ce89 883e 8af7 0fbd e03c b13a
00000220: a5e5 943e f8b9 42bd 62a3 06be 7186 2b3e
00000230: 7447 263e 1fcb 0f3e 2cfd ae1f f95a 34bd
00000240: 1c44 0dbc 17d4 4ebc e0be 133e 5b76 f83d
00000250: 5700 7d3e 2d07 b03d 7dec 983d 495e 34bd
00000260: 68f6 05bc 8a31 e63d 2426 3fbd d4c2 003e
00000270: 8065 2b3c b3e5 c3bd ba8d c2bd 1220 f7bb
00000280: 5e56 42be a92c 503d a333 c6bd ee49 6e3e
00000290: 24b3 4317 e75b 2fbe 19da 853e be87 813d
000002a0: 7e34 5d3d 63c7 a83d dff9 a1bd 68d6 cdbd
000002b0: 48ce 46bc 62a3 d33d 1dfb 28bd 9e6b b9bc
000002c0: 4b0f af3e 645a 6c3d 47bc 10bd a0b4 133e
000002d0: c0b8 bb3b 9fec 6ebd ac34 c19a 8155 853d
000002e0: 87a2 c63d a6f7 361e a93f 5b3b f727 47bc
000002f0: 2e6e f1bc 56ef d7bd 615e 13bd e6f2 3298
00000300: 571e 573c 6792 ac3d 657d a03d e375 103e
00000310: 80ff 833d 1708 09bb 76bc ef3d 0170 56bd
00000320: c457 cf3e 31aa 23be 78c0 85be cc38 c13c
00000330: 5ed9 a63d 699f d43d 1b8b c13d 6fe3 9fbd
00000340: ad2c 96bd 6cc8 3cbe 116a b03b 03b8 b9bc
00000350: fd59 ac3e 33bc 003e 1540 c4bc 43ae 2cbe
00000360: 37b3 15be 99af 1f3b a844 4d17 4694 b13d
00000370: c66e 383e f949 70bd 1874 873e a697 38be
00000380: c9fd bd3e 295c 043e d615 ca3d 00b7 013d
00000390: 41e4 343c 098b 3dbd 3a6c 113e d02d ddbd
000003a0: c739 b23c 9e9f 07bd 3f6a 2b3d 1e0d 8bbd
000003b0: ab11 dd3d 4697 d43d e832 803d 5526 cb3d
000003c0: bbf0 a01a 4988 0cbe 2e4f 8ebd bde0 52bd
000003d0: 0d42 2c3e 2bd0 013e 0de5 343c 81a9 3bbc
000003e0: 6b25 70bd e39a 5e3d c430 f2bd f27c 823c
000003f0: d63e c2bc cc07 493c 19e4 343c 9527 623d
0.07600276 0.082149014 -0.12682593 -0.11695236 0.042469755 0.22562657 0.061985005 0.26510412
-0.042536013 0.16177271 0.09511118 -0.072455876 1.6872817e-20 0.21879934 -0.045949697 0.066805795
-0.035971284 0.027536733 0.12522566 0.13855234 0.13280423 -0.029692732 0.33970198 -0.018405525
-0.009500504 0.004294401 0.048758727 -0.100339234 0.08305414 0.14719182 -2.716025e-21 0.09891424
-0.033736363 6.162951e-25 0.099198796 0.07039714 0.14392066 0.12559535 0.14101523 9.8490067e-26
0.11576551 0.22048382 -0.10371332 0.029756347 0.17229557 0.26827243 -0.33590868 0.20988323
-0.22955827 0.25325596 0.15876752 -0.019825181 0.19644473 -0.038413305 0.058207374 0.20160282
-0.007990407 0.0011022119 0.07023204 0.107176304 -0.2210726 -0.052041505 -0.22235596 -0.08819536
-0.07807413 0.07742047 2.3748182e-22 -0.08883435 0.06268651 -0.08587389 -0.09568222 0.02913208
-0.046990145 0.0013248149 0.007857716 -0.028023345 0.013716799 0.13795702 0.06410131 -0.087194644
0.12150081 0.12832952 0.12164849 0.2026021 -0.2304736 0.09917237 -0.13942687 0.08704897
-3.366969e-22 -0.03923009 -0.044297293 0.17196019 0.022497328 -0.010581832 0.0013336937 -7.035225e-21
0.06246616 0.165013 0.3031905 -0.20428467 0.30785275 0.13246776 0.013715231 0.09666597
-0.022715962 0.021606222 1.7626959e-24 -0.09135811 -0.023884641 -1.2413913e-23 -0.08872821 -0.08801699
-0.08896326 0.13880982 0.013694664 -5.9568934e-22 0.10815933 0.22917205 -0.09279917 0.024545003
0.074484445 0.2227624 -0.23182498 0.18914072 -0.15350343 -0.028393917 -0.08120436 0.013503295
0.12842096 0.014145362 0.22406252 0.15655722 0.014487003 0.26667637 -0.03514818 0.001352217
0.29081455 -0.047540635 -0.13148263 0.16750504 0.16238195 0.14042328 7.4110704e-20 -0.04403207
-0.008622196 -0.012623808 0.14428282 0.121319495 0.24707161 0.08595119 0.074669816 -0.04403523
-0.008176424 0.112399176 -0.046667233 0.12574321 0.010461211 -0.09565296 -0.094996884 -0.007541665
-0.18978259 0.05082384 -0.09677818 0.2327039 6.3234005e-25 -0.17124902 0.26142958 0.06324719
0.05400514 0.08241155 -0.07908987 -0.1005066 -0.012134142 0.10333897 -0.041255105 -0.022634324
0.34191355 0.05770339 -0.035335805 0.14424372 0.005728811 -0.05833113 -7.9908025e-23 0.06510449
0.096989684 9.686212e-21 0.0033454692 -0.012155524 -0.029471483 -0.105436966 -0.03597868 -2.3128593e-24
0.013129792 0.084263615 0.07836417 0.1410747 0.06445217 -0.0020909363 0.11705868 -0.05235291
0.40496647 -0.15982892 -0.26123405 0.023586653 0.08146928 0.103819676 0.094503604 -0.078070514
-0.0733274 -0.1843583 0.005383738 -0.022670751 0.33662406 0.12571792 -0.023956338 -0.1686335
-0.14619146 0.002436614 6.632573e-25 0.08670859 0.18011007 -0.058664296 0.2645576 -0.180266
0.37107685 0.12925781 0.09867446 0.031668663 0.011040748 -0.046275172 0.14201441 -0.10799754
0.021756066 -0.033111207 0.04184937 -0.06789611 0.107943855 0.103804156 0.062597096 0.09919421
6.656337e-23 -0.13723864 -0.06948696 -0.05148386 0.16822071 0.12677066 0.011040938 -0.011453987
-0.058629435 0.05434693 -0.118257076 0.01592872 -0.023711603 0.012269925 0.011040711 0.05521353

fc1.bias f4 [128]
00000000: cb2d ee3d 6a01 ad3d 8653 153e c9de e13d
00000010: fd5b 523e 0066 183e a4ac a53e 47b5 623d
00000020: 2dbb ab3e 67a3 563e 1caa 593e 5154 083e
00000030: a929 d63d 4347 403d 741e 963e 7d92 a63d
00000040: 8c37 263e d2c5 373e 163b 15bb e714 d73d
00000050: 3db5 133e 56de 5b3e 3d7f 2d3e 2e25 1c3e
00000060: d4bf 063e c13c 8a3e 6397 983e c146 023e
00000070: ae2b 9d3d e27e 923e 07de 343e 5d8c 2a3e
00000080: fd14 823e 1c91 c13e e86d 2c3e 891d 853e
00000090: 6eee 273e e0f7 d83e a52f b13d 9153 ad3d
000000a0: 4560 423e 88a4 053e 2535 863e cf52 453e
000000b0: ef01 5c3e 885c 1a3e e84e aa3d 5cdc 053e
000000c0: 4991 993e 3ed3 4e3e eb3b 9a3d 693e d93d
000000d0: 1860 bf3d 61a3 b83e acd0 153e cba4 3a3e
000000e0: 65d4 843e 9376 b53d 2f7f 923d 72b0 3a3e
000000f0: d5d9 9d3d c801 ca3d 7e11 523e c8cd 6c3e
00000100: 89b4 d43e b678 883e 247c 8a3d 0cb9 b83e
00000110: 89d0 d23d d42c 143e ea8c 893e 79d5 053e
00000120: 5f16 d53d a5ee 103e 6988 353e 0d81 b43d
00000130: 0b3b a63e 075f 003e 118a 963e 5ac6 793e
00000140: 3447 293e 0ff2 933d ecac be3e 9529 e93d
00000150: f829 2d3e fa36 383e 2ede 0d3e ea1a 9c3d
00000160: 2091 4d3e 0ce8 e13d 997a ad3e ce1b 293e
00000170: 3115 4f3e 92b6 5b3e 2379 f43d 6314 d43d
00000180: 36cb 853e b075 1e3e 8ab0 283e f82f 113e
00000190: b6a1 4e3e 8f04 953d 5ea6 a63d 3107 103e
000001a0: 5c9f 4f3e 39b0 8b3d e97e 023e a0d5 b23d
000001b0: a8d7 603e f5de 2f3e fa25 8d3e a268 413e
000001c0: 6a1c 633e c42a 7c3d eda0 903e 636a 3c3e
000001d0: 28ba 903e 35cf 233e 8667 923e c745 a23d
000001e0: 2d5d af3e 47aa 343e 69d2 b83d 5ed7 a53d
000001f0: 397e 4e3e 21e5 6d3e f63a f53d 21ba 4b3e
0.11629828 0.08447535 0.14582643 0.11028821 0.20542903 0.1488266 0.32358277 0.05534866
0.3354124 0.2096077 0.21256298 0.13313414 0.10457165 0.04694296 0.2932011 0.08133409
0.16232127 0.17946556 -0.0022770814 0.10502034 0.14424606 0.21471533 0.16943069 0.15248558
0.13159114 0.26999477 0.29803 0.12722303 0.07674347 0.2861243 0.17662822 0.16655107
0.25406638 0.37806022 0.16838801 0.25999096 0.16399547 0.42376614 0.086516656 0.08463205
0.18982036 0.13051045 0.2621242 0.1926987 0.21485113 0.1507436 0.083158314 0.13072342
0.29993656 0.2019777 0.0753096 0.10607607 0.093445 0.36062148 0.14630383 0.18226926
0.25943294 0.08860507 0.071531646 0.18231371 0.07707564 0.09863621 0.20514485 0.23125374
0.41543987 0.26654595 0.06761959 0.3607868 0.10293681 0.14470226 0.2686532 0.13069715
0.104046576 0.14153536 0.17727818 0.08813677 0.3246692 0.1253625 0.2940221 0.24392071
0.16531068 0.072239034 0.37241304 0.11384884 0.16910541 0.17989722 0.13854286 0.07622321
0.20074892 0.110305876 0.33882597 0.16514513 0.20222928 0.21456364 0.119371675 0.10355451
0.261316 0.15474582 0.16473594 0.14178455 0.20178875 0.0727626 0.08137201 0.14065243
0.20275635 0.06820721 0.12743725 0.08732152 0.21957266 0.17174895 0.27568036 0.1888757
0.22178808 0.061564222 0.28247777 0.18399958 0.28267026 0.15997012 0.28594607 0.07923465
0.34250775 0.1764308 0.090245076 0.08097719 0.20165338 0.23231937 0.119741365 0.19895221

fc2.weight f4 [64, 128]
00000000: 1b40 9fbd 60ce 4c3d a298 6d3d d200 703b
00000010: 7446 803d 0734 27bc 327c 73bd db8c afbd
00000020: c044 7b3d cf97 e23c 5bb6 75bd 7e06 98bd
00000030: 5e19 5c3c d9a7 b7bc d597 dd3c 648c aebc
00000040: 5dae 4c3d a7fb 91bc 0f70 e2ba d0e7 153d
00000050: 7c22 89bd a771 cfbc 4551 81ba 17a6 b7bd
00000060: 2436 c33c e694 4dbd 3a7b 7e3d 008f 11bc
00000070: a2b8 16bd 1df5 4cbd 35e0 27bd 46b0 56bd
00000080: b6e7 0d3d 91e0 e03c 041a eebb 6c35 193b
00000090: 5e43 483c 953a adbd 88e4 6bbc 5067 b43c
000000a0: 1a5c 91bd 4b0c fabb 9148 9e3c bde2 99bb
000000b0: 1cef 473d 1b5f 633c ed6c 65bd b477 8ebd
000000c0: 1873 03bd 1820 f5bc b56c ecbc 6fe2 a0bd
000000d0: e517 b4bd 4d34 81bc 5e15 0bbd 5c80 8d3c
000000e0: 8ad6 913c 5ba4 09bd 2579 863d 19ee bebb
000000f0: 81e4 b83b fe22 623d b840 fc3b c4c0 42bd
00000100: 29f8 cfbd cdbf c83a 4f8b 18bd af31 f4bb
00000110: 7b08 863d 0e42 363d be00 81bd 7e4c 69bd
00000120: fbcc 53bd 410a a5bd 97f2 623c 76ee d53c
00000130: 7d4f d5ba 3327 afbc 6c81 7fbc 1352 4dbd
00000140: 57f3 c63b 4344 2c3d f183 6b3b 8f9c b83b
00000150: 92e9 213b f518 44bd c0de 18bc 2e17 c5bc
00000160: 016f 59bc 806a 5ebd 7749 54bd 6a3b 8cbd
00000170: 710c bf3a 2371 5fbd 8e45 36bc ec37 02bd
00000180: 9039 113d 602e 16bd e89c 6b3c 1bec 21bc
00000190: bd1b bfbc 038c 86bd 42de 373d 1eb0 88bd
000001a0: f74d b8bc 50f2 79bd 265b 4c3d 4d5d f23c
000001b0: 4f2d 9ebd 07e6 d9bc 0d28 e6bc eb00 dcbb
000001c0: e2f6 313c 3670 96bc d13a 7d3b 45ee 2e3d
000001d0: f496 abbd 4784 0a3d 6f08 96bd 5bff 2ebc
000001e0: 13ec d5bc 28c2 33bd 6dcd 1dbc 3265 ed3c
000001f0: 4db9 5bbd d9a3 0fbc 2be4 10bc 1c4a 0b3d
00000200: 09b3 10be 9997 eebd fe8b 693e 5e80 02bd
00000210: a43e 4c3d 3323 273e 57d4 43be 271e 17be
00000220: 0e05 623e 6690 b03d 3b01 d63d 6cef 0dbe
00000230: 1442 e7bc 5842 a73e 9c5c d2bd c31e 223e
00000240: 2c96 b63d 325d 4bbe 9e61 b1bd 60f6 383e
00000250: 9dac 823d e9fc 57be f4f5 283d 270c 9fbe
00000260: 3bda 9a3e 5e10 af3d f6eb 583e 1ffe 223e
00000270: 358e 8d3e 4186 b63d fbf2 c83d 0694 7fbe
00000280: 26e3 2f3e 1ac0 fc3d 6a5c 343e 66a9 33bd
00000290: c39f 0f3e c331 3dbb f083 00bd b7b3 ddbc
000002a0: 1253 bc3d 88ef e53d a895 6cbe 80be 273e
000002b0: 73fe 84bc edcf 4c3e a990 403d cf79 2c3e
000002c0: 2bc0 553d 7615 c4bb c5e7 d33d f160 34be
000002d0: caf7 aa3d 3b03 13bb de6f 0bbe 14bd 183e
000002e0: 19ac 9cbd 656f 1abd 98aa 0e3e 663b 1f3e
000002f0: 36cc a93d fe14 05be e258 c9bc bcce 293d
00000300: 19e6 2e3d 6fe4 0cbe 31fe b2bd 9bb5 4a3e
00000310: bf39 08be 0a58 b4bd 6811 e93d 0870 8cbb
00000320: 09d4 a23e 4595 573d 5478 c1bd f8f6 713e
00000330: 3976 c9bc d515 e83c 934a 1c3e 6ac5 4bbb
00000340: 6a31 453d 309e c5bd 349c 1bbd 3ea0 983e
00000350: 5386 3ebc 53ab 533d 53aa e13d 59dd 933e
00000360: d7a1 7b3e 786f 113d 23e4 13bc ec2b 523e
00000370: 0127 aa3d 96fa 2a3e 9f5d d03d 908c 333e
00000380: cfca 24be 8291 f9bc 9d2d 0f3d 8d3d a23e
00000390: 190b d73b f1ef 6c3e ad18 58bd d2eb a3bd
000003a0: 9abc 073e cc8a b03d 57af eb3d b230 743e
000003b0: 7488 53be 37cd ff3d b320 bbbd 9560 b9bc
000003c0: 8644 b93d 88fd b33c 0ade 5d3e 18b2 4a3e
000003d0: 7458 3c3e 2c44 213d c94d 123e 2d0c 1dbd
000003e0: ca2d d73d 53ca 5c3d ea9b 6b3e a672 27be
000003f0: 838e 51bd 48de 33bd e08c 92bd f3c8 a43e
-0.07775899 0.050001502 0.05800689 0.0036621583 0.06263438 -0.010205275 -0.059444614 -0.08571788
0.061344862 0.027660279 -0.05998836 -0.07423113 0.013433782 -0.022418903 0.027049938 -0.021307178
0.049970973 -0.017820193 -0.0017275828 0.036598027 -0.066960305 -0.025322748 -0.0009866139 -0.08967226
0.023829527 -0.05019083 0.062129237 -0.0088841915 -0.036797173 -0.050038446 -0.040985305 -0.0524142
0.034644805 0.027450832 -0.007266285 0.002337779 0.012223093 -0.08458439 -0.014397748 0.02202192
-0.07097645 -0.00763086 0.019321712 -0.0046962188 0.048812017 0.013877655 -0.056012083 -0.06956425
-0.032092184 -0.02992253 -0.02886043 -0.07855689 -0.0879362 -0.01577201 -0.033955924 0.01727312
0.017802496 -0.033604007 0.06566075 -0.0058267233 0.005642474 0.055209152 0.0076981448 -0.047547117
-0.10154755 0.001531595 -0.03724223 -0.007452212 0.06544586 0.04449659 -0.0629897 -0.056957714
-0.051709156 -0.080585964 0.013851783 0.026114684 -0.00162743 -0.021380996 -0.015594821 -0.0501271
0.006071489 0.042057287 0.0035936798 0.0056338976 0.002470587 -0.047875363 -0.0093304515 -0.024058904
-0.013271094 -0.054300785 -0.051827874 -0.0684727 0.0014575851 -0.054551255 -0.011124982 -0.031791613
0.035455287 -0.03666532 0.014380671 -0.009882952 -0.023328656 -0.06569674 0.044889696 -0.06674217
-0.022498114 -0.061022103 0.049891613 0.029585505 -0.07723486 -0.026598943 -0.02809527 -0.0067139766
0.010862084 -0.018364053 0.0038639794 0.0427077 -0.083784014 0.033817556 -0.07325827 -0.010680999
-0.026113546 -0.043886334 -0.009631497 0.028978918 -0.053643513 -0.008767092 -0.008843462 0.034006223
-0.14130796 -0.11650009 0.22807309 -0.0318607 0.049864426 0.16322021 -0.1912397 -0.14757596
0.2207224 0.08621292 0.104494534 -0.13860863 -0.02822975 0.32667804 -0.1027157 0.15832047
0.08915362 -0.1985977 -0.08661197 0.18062735 0.063805796 -0.21092571 0.041250184 -0.3106396
0.30244622 0.08548044 0.21183762 0.15917252 0.27647558 0.08912326 0.0981197 -0.2495881
0.17176494 0.12341328 0.17613378 -0.043862723 0.14025788 -0.0028868772 -0.031375825 -0.027063234
0.09195532 0.112273276 -0.23103964 0.16381264 -0.016234612 0.20001192 0.04701296 0.16843341
0.05218522 -0.0059840037 0.10346941 -0.17615105 0.08348043 -0.0022432345 -0.13616893 0.14915878
-0.076500125 -0.03770389 0.13932264 0.15550002 0.08290903 -0.12996289 -0.024578515 0.041456923
0.042699907 -0.13759016 -0.087398894 0.1979584 -0.13303278 -0.088058546 0.11380273 -0.004285816
0.31802395 0.05263259 -0.09446779 0.23629367 -0.024592506 0.028330723 0.15262823 -0.003109301
0.048142828 -0.096493125 -0.037990764 0.29809755 -0.011628705 0.05167706 0.11018815 0.28879812
0.24573456 0.035506696 -0.00902656 0.20524567 0.08308221 0.16697153 0.10174107 0.17534089
-0.1609299 -0.030464891 0.03495561 0.31687585 0.0065626022 0.23138405 -0.052757908 -0.080039635
0.1325554 0.086202234 0.11508053 0.23846701 -0.20657521 0.124903135 -0.09137096 -0.022629062
0.09046273 0.021971479 0.21666732 0.197945 0.18393117 0.039371654 0.14287485 -0.03834169
0.105067804 0.05390389 0.23008695 -0.16352329 -0.0511613 -0.043913156 -0.07155776 0.32184562

fc2.bias f4 [64]
00000000: c2a2 aabc deea 1bbd 1c16 99bd ba17 7c3e
00000010: 21b6 7b3d 5363 253e d7ec a23a 5746 0c3e
00000020: 2cf1 d13d cd12 38bc c5c9 17bd 07b7 a33d
00000030: acc9 d3bb 90d0 7b3c f66a 42bd fb57 ce3d
00000040: 15ad 58bc b29f 323e e2a3 613e d036 2d3e
00000050: 981f 8a3d b415 9c3d 5f24 c23c c59f e03d
00000060: 3016 003d 1247 89bb 6085 183e 56ee 143e
00000070: bc22 bebd bb15 b23d ea21 bebc 18be 9cbd
00000080: ff98 483d abc2 793d aba5 33bd 400f 2d3b
00000090: c65a 2ebd ae9d 13b9 f195 053e a205 89bd
000000a0: 1a66 943d 19c5 a6bc 5165 5c3c 8641 193d
000000b0: fbf7 be3b d943 193e 94c9 1d3e 0e40 023e
000000c0: e749 3b3d 5a93 ed3b 4be3 d33d c6b4 4bbc
000000d0: 15e5 aa3d 1212 233e 2544 c7bd 8c65 a13e
000000e0: 6b62 89bc 5ba8 0c3e ec15 173e f584 6d3d
000000f0: cda8 523d 2ec1 703d cad6 c4bb faa3 88bd
-0.020829562 -0.038065784 -0.0747492 0.24618426 0.06145299 0.1615117 0.0012430203 0.13698708
0.10251078 -0.011234951 -0.037057657 0.07993894 -0.00646325 0.015369549 -0.047465287 0.10075375
-0.01322486 0.17443731 0.22035173 0.1691544 0.06744307 0.07621327 0.023698984 0.109679736
0.03127116 -0.0041893804 0.14894629 0.14544043 -0.09283969 0.08695551 -0.02320953 -0.07653445
0.048974033 0.060976665 -0.043859165 0.0026406795 -0.042567037 -0.00014077753 0.1304548 -0.066905275
0.07246037 -0.020357655 0.01345189 0.037416004 0.0058279014 0.14967288 0.15408927 0.12719747
0.045724776 0.0072502317 0.10346087 -0.012433236 0.08344475 0.15924862 -0.097297944 0.31522787
-0.016770562 0.13736098 0.14754456 0.057988126 0.051430512 0.05877798 -0.00600705 -0.06671901

fc3.weight f4 [46, 64]
00000000: f078 44bd 2f49 3ebe 1b7f f33c 2d14 e83c
00000010: f14b a33d 591e 0b3e e2c4 69be d1e6 96bd
00000020: f089 ccbd a49b ba19 a792 ad3d 11b3 e3bd
00000030: 2d4c fdbd fba1 03be 504b f4bc dce5 8abe
00000040: 2e4b 40be 5194 3b3e f405 d63d 3e82 74bd
00000050: 9459 64be 1068 9ebd d352 dcbd 14dc f93d
00000060: 79f0 b3bd cf7b e0bc 58fd 4938 892a e63c
00000070: bcf3 31bd e987 28bd c5b8 243c 8aa3 9f34
00000080: 1d18 e9bd 5a77 5fbd 3751 b43c 2b10 1bbd
00000090: 8524 07be 3c8d 083b a685 54bd 48ff 733b
000000a0: e1b5 e8bd 81da 67be bd7a 00be 37e7 97bd
000000b0: 6723 a33d 946e a9bc f477 97be d3a0 e1bc
000000c0: 0864 75be 6d10 54be eade 6dbd 7966 681c
000000d0: b2aa 503c 275c 6fbe 4abf d6bd 20ba 753d
000000e0: 66b3 f098 02d6 873d e470 35be 9931 6abd
000000f0: 4c4e b9bd 2aec 26be 2c86 febd b2c4 29bd
00000100: 13f5 12bd a528 d3be c9b3 70be 7e5c 2dbe
00000110: bb96 e4bd ed6a 4a3d 982f 28be 6a87 44bd
00000120: 1532 7ebd c5dc 351b 6e8e 5f3d 3fd7 913d
00000130: 713b 2bbc e1ce ddbd 3ec8 87bd dd6d 373d
00000140: d138 87bd 700e 8b3d bad3 8dbd 3855 04bc
00000150: 600b 37bd b4c8 bcbd f85f 20bd bc31 9ebc
00000160: e294 d1bd 3858 babe 8b10 50bd 0f32 bdbd
00000170: 4aef 86bd 8012 e5bd ce3d 0abc 5ff4 3cb2
00000180: c623 423c 3b3c 05be 798d 32bb 9d09 823d
00000190: 42d1 d3bd 94c3 d3ba 8507 5ebd 1f35 eb3b
000001a0: 9c7e 95bd ff62 b43d 6da4 fbbe 93b0 173d
000001b0: eeaa 8f3c d31d 943d 477d e83c b6b7 fa3b
000001c0: 727a c2bd d85c cc3c e304 fcbd 44cc a41b
000001d0: ba6f 87bd 1cde b0be e4fb 13be cb3d 773c
000001e0: 99af 019a d2ce b53d 26f0 9bbd 716f a8bd
000001f0: 3c78 20bf b50d 05be ce58 2ebe 2bd7 403c
00000200: f2dd cb3c bcf2 d8be 1379 88bd a7e5 bd3d
00000210: 13a1 48bc 0c3f 393d 4886 08be 7369 84be
00000220: 32a3 81be e201 f31a 611f 9dbe ec12 d1bd
00000230: 64f8 393d cf98 85be 48df 35be cb2e f63d
00000240: 40ee c6be 6bb8 9abd fa95 553e ddbd e33d
00000250: 00b0 63be bd29 cdbd 6a1f 0abd 8013 a93c
00000260: 0717 e8bd 839e f53b 413f 4e3e 4c4e 4dbe
00000270: 3aee bebe b26f 51bc eab6 dabc 6ff2 b034
00000280: 381e 4f3d 8a4a 8f3d 4062 5abe d017 bb3c
00000290: 38f0 63be 79e7 f1ba 48ef e93b ebc5 e2bb
000002a0: 5f23 3cbe 6a6c 3abe eb8d 273e ac97 debd
000002b0: 753d 553d 7856 8f3d b4ae 05bf bce9 883c
000002c0: faa3 83be 9fc8 a2be 11c7 4d3d 179c 4a1c
000002d0: cd1b 133d 0445 a8bd e040 8fbd 1335 913e
000002e0: a8db a81c af00 503c b1cf 5abe ed88 0ebe
000002f0: 73ff 01be ed56 83be 286d 99be d7a7 e03b
00000300: 4c8d 68bc a037 97bc 2e5f 0a3e 7b77 0fbe
00000310: 97ad f2be 12ff afbc cf4d 573c 8248 aabe
00000320: fb4d 2dbc feb5 3e99 0e56 ebbe 8782 86bd
00000330: f20f 30bd 9f66 49bc fcb5 3bbe d679 dabe
00000340: b9d8 1abe 8abc 283c fc1b b3bd 7642 fb3c
00000350: a8b2 b8bc 1a9d 89bd ace3 41bf facd cb3d
00000360: cae6 debc a489 10bc 211c 09be 85a9 e63d
00000370: 3b9c 77be 45e1 163d 3a32 b7bc 7d4b 9ab1
00000380: 5d3b 85bd eedc d03d fef8 5cbd f2f8 a83c
00000390: 4b09 65bd c707 e439 63ea b7be b880 eabb
000003a0: 0b4f 78be 7709 8bbd 8d4d c2be 0294 bdbd
000003b0: 6501 be3b a509 40bd c712 a73c 1461 34bc
000003c0: d9ae 18be 5944 4fbd 9595 353d 0996 599c
000003d0: 0df5 503d 1239 363e 2640 12be 0fd4 ecbd
000003e0: 26ea 2a9a 9cf2 d7bd 2466 f23b b905 04be
000003f0: d297 003e 1c62 0e3d 829c b63d fc6b f5bd
-0.047966897 -0.18582605 0.029723695 0.028329933 0.07973469 0.13585795 -0.22829011 -0.073682435
-0.09987247 1.9294812e-23 0.08475237 -0.111181386 -0.12368045 -0.1285476 -0.029821068 -0.27128494
-0.18778679 0.18318297 0.10450354 -0.05969452 -0.22299796 -0.07734692 -0.10757985 0.1220018
-0.08786101 -0.027402787 4.815808e-05 0.028096454 -0.043445334 -0.04114524 0.010053818 2.9735048e-07
-0.11381552 -0.054557182 0.022011383 -0.037857216 -0.13197525 0.0020836135 -0.05188527 0.0037231017
-0.11362816 -0.22641946 -0.12546821 -0.074171476 0.07965737 -0.02068261 -0.29583704 -0.027542507
-0.2396394 -0.20709391 -0.058073916 7.6894804e-22 0.012736009 -0.23374997 -0.10485704 0.059991956
-6.2219692e-24 0.066326156 -0.17718846 -0.057176206 -0.09048137 -0.16301027 -0.12427935 -0.04144735
-0.035878252 -0.41241947 -0.23506083 -0.16929814 -0.11161562 0.04941838 -0.16424406 -0.047980703
-0.06205948 1.5043304e-22 0.05457919 0.07121133 -0.010451184 -0.10830475 -0.0662999 0.04478251
-0.06602634 0.06789863 -0.06925149 -0.008076958 -0.044688582 -0.092179686 -0.039154023 -0.019310825
-0.10233475 -0.3639543 -0.050797027 -0.092380635 -0.065886095 -0.11185169 -0.008437587 -1.0998604e-08
0.011849349 -0.13011257 -0.0027244969 0.0634949 -0.10342647 -0.0016156309 -0.05420639 0.0071779634
-0.072995394 0.088079445 -0.49148884 0.03703363 0.01753756 0.07232251 0.02838005 0.0076512946
-0.09496011 0.024946615 -0.123056196 2.7263528e-22 -0.06613107 -0.34544456 -0.14451557 0.015090416
-2.681842e-23 0.088773385 -0.07614164 -0.08224381 -0.62683463 -0.1299351 -0.17026064 0.01177005
0.024886105 -0.42372692 -0.06663718 0.09272318 -0.012245434 0.04522614 -0.13332474 -0.258617
-0.2531982 1.00505486e-22 -0.30688003 -0.10208687 0.0454029 -0.26093146 -0.17760956 0.12020644
-0.38853645 -0.07554706 0.20857993 0.11120198 -0.22235107 -0.100177266 -0.033721365 0.020639181
-0.11332517 0.0074957027 0.20141317 -0.20049399 -0.37291127 -0.012782978 -0.026698548 3.2958948e-07
0.05056593 0.06996639 -0.21326542 0.022838503 -0.22259605 -0.0018455825 0.0071391203 -0.0069205663
-0.18372868 -0.18205419 0.16362731 -0.10868773 0.052060563 0.069989145 -0.522197 0.016713016
-0.25711042 -0.31793687 0.050238673 6.7037935e-22 0.035915185 -0.08216289 -0.06994796 0.28360805
1.1174087e-21 0.0126954755 -0.2136829 -0.1391942 -0.12695102 -0.25652257 -0.29966092 0.0068559456
-0.014193844 -0.018459141 0.1351287 -0.14010422 -0.47398064 -0.021483932 0.01314111 -0.33258444
-0.010577674 -9.859523e-24 -0.45964092 -0.06567865 -0.042983957 -0.012292533 -0.1833114 -0.42671078
-0.15121736 0.010298857 -0.08745572 0.03067134 -0.022546127 -0.06719418 -0.75738025 0.09951396
-0.027209658 -0.008821879 -0.13389637 0.11262802 -0.24180691 0.036835928 -0.022362817 -4.490572e-09
-0.06505463 0.10198389 -0.053948395 0.020626519 -0.055917066 0.00043493343 -0.3592101 -0.0071564578
-0.24248902 -0.06788915 -0.37949792 -0.09256746 0.005798506 -0.046884198 0.020394696 -0.011009473
-0.14910449 -0.05060229 0.044332106 -7.1993193e-22 0.05101495 0.17795208 -0.14282283 -0.115638845
-3.534432e-23 -0.10544321 0.00739743 -0.12892808 0.12557915 0.034761533 0.0891657 -0.11983487

fc3.bias f4 [46]
00000000: ccdf 2d3d 3453 7cbd ffc3 8f3d d43b afbd
00000010: 6167 d5bb 05cb 48bd e69b a93d 4aeb f1bc
00000020: a59e 06be b5f3 533d 0316 dcbd db6d d43c
00000030: 84af 17be 3121 f73c 8bd0 0c3e d399 43bd
00000040: 08b6 c5bc 082c 80bd a3c3 7abd 9b63 e6bd
00000050: d6e1 cbba 1ea0 f5bd a6da ae3d e6de ebbd
00000060: 3d2d b23d 3804 83bd 2ae3 3cbd db62 c03d
00000070: cf94 543d 08f0 273d c9d6 b0bd 9f53 9fbd
00000080: 04a2 a3bc a16f 8d3d 38d1 84bd 31d2 a23d
00000090: 73f3 df3c 7998 2f3c 1228 d2bd f994 d2bd
000000a0: e310 3bbc b954 933d b24d 893c 88ca 9e3d
000000b0: bcee bb3d f43f a7bc
0.042449757 -0.061602786 0.07019805 -0.08556333 -0.006512568 -0.04902174 0.082816884 -0.02953114
-0.13146456 0.05174609 -0.10746386 0.02593129 -0.14813048 0.030167194 0.13751428 -0.04775412
-0.02413465 -0.06258398 -0.06122173 -0.11249467 -0.0015554975 -0.119934306 0.08537798 -0.11517124
0.08700035 -0.06397289 -0.046115078 0.09393855 0.051899727 0.041000396 -0.08634717 -0.07779621
-0.019974716 0.06906057 -0.06485218 0.07950247 0.027337765 0.010717505 -0.10261549 -0.102823205
-0.0114176 0.07193894 0.01676068 0.077534735 0.09176394 -0.020416237
