templates/data.pth (torch, 24938 bytes, 6 tensors)

l1.weight f4 [32, 80]
-0.03416657 -0.05910201 -0.20408389 0.04314582 0.3004662 -0.08522161 -0.058355544 -0.28692892
-0.25995377 -0.32288206 -0.20771948 -0.5378768 0.060868666 -0.33094236 0.67691034 -0.09275521
0.2878393 0.30365422 0.045401957 -0.27291474 -0.008015543 -0.31932545 0.2565264 -0.5666889
-0.27514994 0.6067239 0.2706078 0.10427132 -0.020606264 0.2292489 0.25797936 0.04323736
-0.22935064 -0.33539718 0.14008196 -0.2282409 -0.23321228 -0.23343673 -0.23438482 0.3341307
0.039526414 -0.054190535 0.167102 0.088358715 -0.04966086 -0.24488516 0.40806103 0.41146094
-0.17986152 -0.36076096 0.2695534 0.55107987 -0.29957905 -0.45468265 0.17121197 0.51271677
0.11003664 0.67069787 -0.04476178 0.23126657 0.23403543 0.0033804479 -0.36031133 0.6693472
0.079535164 0.15304537 -0.41294938 0.25703782 -0.015617468 -0.08535141 -0.19071662 -0.23187318
0.34739104 0.33038235 -0.22666724 -0.10568764 0.6994285 0.05554563 0.2908465 -0.0018119705
0.1627192 0.3088849 -0.11133451 0.026038751 0.291847 0.12843469 0.21982752 0.1557128
0.52105 -0.57683533 0.5842015 0.2927255 0.03348455 -0.020989569 0.071452156 0.28873777
-0.117288604 -0.2154962 0.1567045 0.005524511 -0.25147748 0.04463021 0.34470823 -0.028727036
0.6728611 0.53886014 -0.19015999 0.016720474 -0.0777886 0.13106878 0.108416416 -0.076508135
-0.031135092 -0.07911833 -0.10229005 -0.020635754 -0.10225203 -0.0112887 -0.184157 0.15246595
0.0148335835 -0.13069597 0.0061539738 -0.029131286 0.03784484 -0.35620525 -0.17016432 0.27261686
0.01255107 -0.042892028 0.30923206 0.60491455 0.008437139 -0.09461181 -0.11034266 0.22864781
0.2223943 0.3844284 0.59667903 -0.10379115 -0.5516814 0.09303724 -0.1999947 -0.5001981
0.25000063 -0.07194823 -0.45971185 -0.5490651 -0.39595696 -0.113620885 -0.18704206 -0.36022925
-0.115345456 -0.091591254 0.2579292 -0.15123442 0.6296713 -0.12474656 0.09905847 -0.12797596
0.14865778 0.35324985 0.21260117 -0.055777416 -0.17263605 0.3548721 0.20116335 0.19477303
0.7526363 -0.38646665 0.67235243 0.47120094 -0.023186326 0.618129 -0.23035084 0.17752123
-0.123568445 -9.770153e-05 0.061743718 0.29857293 -0.29412028 0.20433648 0.14887954 0.6204318
0.7661767 -0.18741997 -0.055040497 0.080606006 0.069749266 -0.23666918 -0.51532465 0.053711012
0.41175517 0.20385449 -0.058205705 0.38898388 0.2690771 0.2260031 0.3351467 -0.07872541
0.07135031 -0.07966337 0.11946558 -0.065030426 0.3078995 -0.30253452 -0.12391144 -0.40920976
0.2942474 -0.50532734 -0.45795587 -0.18211429 0.5176519 0.51114273 0.05707122 0.41375133
-0.054264553 -0.5147095 -0.62468386 0.0052002342 -0.4256085 0.0778627 0.42555544 -0.4353464
0.14853592 0.0048755747 0.46131438 -0.47257155 -0.39030653 0.40169707 -0.17944707 -0.3433027
0.0014757428 -0.076112255 0.32523543 0.72806644 -0.28090194 -0.15879609 -0.13006252 -0.08305267
0.2996375 0.49400088 -0.19780801 0.0767501 0.20720059 -0.16555208 -0.008423556 -0.05177757
-0.5114217 -0.5572435 -0.51306725 0.56076837 -0.10756845 -0.29659605 -0.21682616 -0.1626276
00000000: 3ff2 0bbd f314 72bd 5efb 50be acb9 303d
00000010: b5d6 993e ab88 aebd 3906 6fbd 59e8 92be
00000020: a918 85be cc50 a5be 6ab4 54be 4bb2 09bf
00000030: 6c51 793d 4771 a9be ff49 2d3f 72f6 bdbd
00000040: ac5f 933e 9178 9b3e 67f7 393d 7bbb 8bbe
00000050: a053 03bc a07e a3be 6e57 833e 8612 11bf
00000060: 74e0 8cbe 4252 1b3f 1b8d 8a3e 348c d53d
00000070: 78ce a8bc 39c0 6a3e df15 843e a819 313d
00000080: e5da 6abe 2eb9 abbe a571 0f3e fcb7 69be
00000090: 33cf 6ebe 0a0a 6fbe 9302 70be 2e13 ab3e
000000a0: 73e6 213d e5f6 5dbd c91c 2b3e 6af5 b43d
000000b0: 3069 4bbd 2dc3 7abe 60ed d03e 02ab d23e
000000c0: 9e2d 38be a9b5 b8be e702 8a3e 9213 0d3f
000000d0: 6d62 99be 2acc e8be 3152 2f3e 6841 033f
000000e0: e45a e13d dbb2 2b3f 2158 37bd 25d1 6c3e
000000f0: fca6 6f3e 818a 5d3b ba7a b8be 575a 2b3f
00000100: 55e3 a23d edb7 1c3e 1a6e d3be 769a 833e
00000110: 69e0 7fbc b8cc aebd 384b 43be 2a70 6dbe
00000120: 3ddd b13e e027 a93e 751b 68be c372 d8bd
00000130: bf0d 333f d183 633d d5e9 943e a47f edba
00000140: dd9f 263e 2926 9e3e 5903 e4bd 384f d53c
00000150: f86c 953e 6284 033e 771a 613e 2d73 1f3e
00000160: 8863 053f 7bab 13bf 3b8e 153f 1ee0 953e
00000170: 1827 093d 51f2 abbc 8255 923d 70d5 933e
00000180: 0235 f0bd 09ab 5cbe 2577 203e f506 b53b
00000190: a8c1 80be 2bce 363d 997d b03e f654 ebbc
000001a0: a040 2c3f bdf2 093f 4db9 42be 60f9 883c
000001b0: a14f 9fbd e536 063e 6d09 de3d 4cb0 9cbd
000001c0: 050f ffbc ca08 a2bd 727d d1bd 500c a9bc
000001d0: 8369 d1bd 3df4 38bc a793 3cbe 0920 1c3e
000001e0: 8f08 733c 2ad5 05be 46a7 c93b bca4 eebc
000001f0: 3103 1b3d 8960 b6be 8e3f 2ebe 7094 8b3e
00000200: 01a3 4d3c 8daf 2fbd aa53 9e3e aedb 1a3f
00000210: ed3b 0a3c d6c3 c1bd 55fb e1bd a722 6a3e
00000220: 55bb 633e cdd3 c43e f5bf 183f 7490 d4bd
00000230: fe3a 0dbf 4f8a be3d 69cb 4cbe fc0c 00bf
00000240: 1500 803e 9859 93bd 5a5f ebbe 888f 0cbf
00000250: dfba cabe 11b2 e8bd f487 3fbe f86f b8be
00000260: 3d3a ecbd 3294 bbbd 4c0f 843e 32dd 1abe
00000270: 2332 213f 207b ffbd 2bdf ca3d 210c 03be
00000280: bf39 183e 2add b43e 1fb4 593e dc76 64bd
00000290: 81c7 30be ccb1 b53e c4fd 4d3e 9572 473e
000002a0: c6ac 403f f5de c5be 4a1f 2c3f 4041 f13e
000002b0: 40f1 bdbc b43d 1e3f 17e1 6bbe 20c8 353e
000002c0: 7411 fdbd 1ce5 ccb8 fbe6 7c3d 8dde 983e
000002d0: ef96 96be 953d 513e e173 183e 9ed4 1e3f
000002e0: 2824 443f 05eb 3fbe 2572 61bd c314 a53d
000002f0: b4d8 8e3d 6859 72be 51ec 03bf 1400 5c3d
00000300: 93d1 d23e 3bbf 503e 1b69 6ebd e528 c73e
00000310: 79c4 893e 5b6d 673e 5998 ab3e ca3a a1bd
00000320: 1d20 923d 8d26 a3bd 5faa f43d ac2e 85bd
00000330: 01a5 9d3e cee5 9abe 48c5 fdbd f183 d1be
00000340: 98a7 963e 225d 01bf 3179 eabe 2b7c 3abe
00000350: d684 043f 40da 023f 83c3 693d 37d7 d33e
00000360: 8244 5ebd 00c4 03bf 48eb 1fbf ba66 aa3b
00000370: 5be9 d9be 7b76 9f3d 67e2 d93e b9e5 debe
00000380: cd19 183e 49c3 9f3b 6631 ec3e e6f4 f1be
00000390: 42d6 c7be 3dab cd3e f9c0 37be 5fc5 afbe
000003a0: b66d c13a bee0 9bbd 4285 a63e 9062 3a3f
000003b0: 61d2 8fbe 719b 22be 1c2f 05be 8517 aabd
000003c0: 166a 993e afed fc3e 2f8e 4abe 282f 9d3d
000003d0: 642c 543e 7c86 29be f402 0abc b814 54bd
000003e0: 88ec 02bf 83a7 0ebf 6058 03bf 848e 0f3f
000003f0: d94c dcbd 70db 97be ad07 5ebe d987 26be

l1.bias f4 [32]
0.24489547 0.70677406 0.5694924 0.60657346 0.64237666 0.42205018 0.41212204 0.5722251
0.43668264 0.5863538 0.6790741 0.8041624 0.28604677 0.49039018 0.36443573 0.4524633
0.25104266 0.7464723 0.4735706 0.53542644 0.4812908 0.70008516 0.57005686 0.30332717
0.6066871 0.4603688 0.5400307 0.31464386 0.48239514 0.16221873 0.40613738 0.6619182
00000000: e1c5 7a3e 25ef 343f 41ca 113f 6648 1b3f
00000010: cc72 243f f616 d83e a901 d33e 587d 123f
00000020: de94 df3e 481b 163f cdd7 2d3f 96dd 4d3f
00000030: b974 923e 6c14 fb3e 5297 ba3e 45a9 e73e
00000040: aa88 803e cf18 3f3f d877 f23e b511 093f
00000050: bf6b f63e c838 333f 3fef 113f b34d 9b3e
00000060: d94f 1b3f 76b5 eb3e 743f 0a3f 0019 a13e
00000070: 7ffc f63e ab1c 263e 3df1 cf3e 7973 293f

l2.weight f4 [32, 32]
0.32898587 0.3961245 -0.285203 0.23227963 0.44363904 0.49662828 0.5654724 0.07740716
0.18128632 0.5055351 -0.8397726 -0.56915057 0.021095043 0.31564584 -0.303488 0.053027157
0.43964067 0.16187297 -0.10368869 -0.46434468 0.77477276 0.2675987 0.61037576 -0.05592468
-0.48771203 0.23082176 0.52084816 0.22719139 -0.47724634 0.034103908 0.28823522 -0.3829614
-0.22326964 0.003971705 0.105728514 -0.006733098 0.023162168 -0.14340532 -0.053195756 0.0806145
0.09296725 -0.03362927 -0.17331366 -0.03485377 0.06056067 0.100974284 -0.0061549367 0.05111291
-0.21619384 -0.058032677 0.04229811 -0.074577786 -0.1727917 -0.010453595 0.043931928 0.11033149
-0.13607842 -0.15945147 -0.13737635 0.12586151 -0.13731956 -0.17370512 0.14674003 0.03500322
0.5103832 0.2996222 0.17689458 0.6085914 0.30822316 0.18312488 0.6576551 0.6348465
0.7616317 0.29227686 -0.19350338 0.060967434 0.44076902 -0.38289633 -0.46096477 -0.07510576
0.33640593 -0.69081736 0.4279583 -0.19234149 0.6267818 0.5410134 0.550558 -0.28075886
-0.41557336 -0.40268645 -0.45066592 0.6986347 -0.092504196 0.5365761 0.09287272 0.04521439
-0.14485489 0.46964988 0.20601836 -0.15630336 0.34109288 0.014119782 -0.016055329 0.20045003
-0.17676409 0.6146566 0.62574613 -0.061757267 0.5450701 -0.6101765 0.5025511 -0.03149081
-0.17795745 0.4589911 0.20577654 0.779899 -0.2691137 0.563882 -0.29045084 0.06634104
0.59370697 0.7472172 0.74571484 -0.8008606 0.12893979 -0.6206862 0.30176893 -0.6158555
-0.09380451 -0.078472875 -0.03334056 -0.06971862 0.013197079 -0.08055388 -0.12317854 0.004454285
-0.17677136 0.17499946 -0.03784947 -0.14877607 0.15072812 0.034552604 0.121962085 -0.08279405
0.04263155 -0.152448 -0.13665056 -0.017799184 -0.16973342 0.10286991 -0.15614007 0.09444709
-0.07235056 -0.14366436 -0.05757837 0.094571844 0.027789399 0.0695772 0.15709288 -0.0010475963
0.1996227 0.32228142 0.2238349 0.68604004 -0.23706573 -0.009140567 0.41284043 0.43386206
0.7568837 -0.38128513 -0.033353172 0.9432147 0.400836 -0.17763697 -0.37247953 -0.6878845
-0.25059173 -0.2593608 -0.4766223 0.3975021 0.08366964 0.42610165 -0.06828416 0.18037367
-0.2080143 -0.21721451 0.0869132 0.6321986 0.17155872 0.36535144 0.3568616 0.5095522
0.41784817 0.4035092 -0.28860056 0.59696317 -0.2863966 0.43280944 0.19558908 0.24538948
0.5933798 0.10963553 0.1254687 -0.062036876 0.41962525 -0.13768631 0.25771412 -0.05698924
0.2745006 -0.5734916 -0.24124843 0.079565816 0.29651526 0.045824207 0.021063853 0.0865135
0.080561444 0.43736368 -0.16940813 -0.017312555 0.15550767 0.34217188 0.6493015 -0.70180637
0.32258418 0.5050865 0.391389 0.3849351 0.7233858 -0.09982942 0.18362384 0.43782315
-0.16513246 0.6283624 0.16463609 -0.5971354 -0.5641122 0.53581303 -0.17837413 0.6532716
0.2645001 0.5015715 0.65463436 -0.67245644 0.27029794 0.17064533 0.5631258 -0.35534927
0.46033838 -0.29078865 -0.35687238 -0.2272709 -0.514919 -0.15718177 -0.041459 0.7633411
00000000: d670 a83e d5d0 ca3e 2106 92be b6da 6d3e
00000010: a824 e33e 1046 fe3e cdc2 103f a587 9e3d
00000020: 1fa3 393e c06a 013f 56fb 56bf dab3 11bf
00000030: 83cf ac3c 559c a13e c762 9bbe 0133 593d
00000040: 9518 e13e 07c2 253e bc5a d4bd 96be edbe
00000050: 8257 463f b202 893e 9641 1c3f 4711 65bd
00000060: 64b5 f9be 8a5c 6c3e 4e56 053f dca4 683e
00000070: a259 f4be 8ab0 0b3d 9193 933e 8413 c4be
00000080: cca0 64be 1425 823b 3188 d83d 52a1 dcbb
00000090: 96be bd3c d8d8 12be cbe3 59bd 3719 a53d
000000a0: 9d65 be3d d8be 09bd 2379 31be d4c2 0ebd
000000b0: 770e 783d 9bcb ce3d 5aaf c9bb c55b 513d
000000c0: eb61 5dbe acb3 6dbd c840 2d3d 3dbc 98bd
000000d0: 4ff0 30be 8e45 2bbc f7f1 333d 7af5 e13d
000000e0: 2458 0bbe 3f47 23be 63ac 0cbe d7e1 003e
000000f0: 809d 0cbe c1df 31be 0543 163e 895f 0f3d
00000100: 79a8 023f 1568 993e da23 353e a5cc 1b3f
00000110: 6dcf 9d3e 1785 3b3e 165c 283f 4d85 223f
00000120: 4cfa 423f 50a5 953e c025 46be fdb8 793d
00000130: 7aac e13e fd0a c4be 9303 ecbe 0cd1 99bd
00000140: 663d ac3e 68d9 30bf 5a1d db3e 2bf5 44be
00000150: c674 203f db7f 0a3f 5ef1 0c3f a0bf 8fbe
00000160: 08c6 d4be eb2c cebe afbd e6be b9d9 323f
00000170: d772 bdbd 0d5d 093f 0d34 be3d b932 393d
00000180: d754 14be f375 f03e 7af6 523e fd0d 20be
00000190: baa3 ae3e a856 673c 7786 83bc c642 4d3e
000001a0: a501 35be 235a 1d3f e630 203f 30f5 7cbd
000001b0: b789 0b3f 8734 1cbf 30a7 003f 82fc 00bd
000001c0: 7a3a 36be e200 eb3e 16b7 523e 76a7 473f
000001d0: 45c9 89be 925a 103f f9b5 94be d0dd 873d
000001e0: 2efd 173f a049 3f3f 2be7 3e3f 3305 4dbf
000001f0: cb08 043e 4ae5 1ebf 7581 9a3e b5a8 1dbf
00000200: 941c c0bd 63b6 a0bd 1c90 08bd a3c8 8ebd
00000210: 9038 583c 6ff9 a4bd 0845 fcbd 40f5 913b
00000220: 8d03 35be 0f33 333e 0c08 1bbd c158 18be
00000230: 7958 1a3e 0887 0d3d 42c7 f93d ed8f a9bd
00000240: 6c9e 2e3d 541b 1cbe 20ee 0bbe 98cf 91bc
00000250: 99ce 2dbe 76ad d23d 2fe3 1fbe 7a6d c13d
00000260: 882c 94bd c01c 13be 4cd7 6bbd e2ae c13d
00000270: 98a6 e33c 7e7e 8e3d f5dc 203e 804f 89ba
00000280: e569 4c3e 1202 a53e fa34 653e 52a0 2f3f
00000290: 5cc1 72be 51c2 15bc d25f d33e 2b23 de3e
000002a0: 21c3 413f ce37 c3be 569d 08bd 8576 713f
000002b0: 603a cd3e 77e6 35be a3b5 bebe 3319 30bf
000002c0: 8f4d 80be f0ca 84be d707 f4be 6585 cb3e
000002d0: fd5a ab3d ff29 da3e 91d8 8bbd e0b3 383e
000002e0: b301 55be 7b6d 5ebe 8cff b13d c4d7 213f
000002f0: 17ad 2f3e 580f bb3e 90b6 b63e 0372 023f
00000300: 32f0 d53e c298 ce3e 74c3 93be 94d2 183f
00000310: 93a2 92be 3399 dd3e 8148 483e 6147 7b3e
00000320: bde7 173f 9888 e03d de7a 003e 611a 7ebd
00000330: 1fd9 d63e a4fd 0cbe 1bf3 833e 8d6d 69bd
00000340: 588b 8c3e 58d0 12bf d409 77be 67f3 a23d
00000350: d9d0 973e 2ab2 3b3d 1a8e ac3c fd2d b13d
00000360: 66fd a43d 22ee df3e 5379 2dbe 0fd3 8dbc
00000370: 673d 1f3e 2731 af3e a038 263f 95a9 33bf
00000380: c129 a53e 594d 013f 2464 c83e 3716 c53e
00000390: d02f 393f 5e73 ccbd e307 3c3e 5b2a e03e
000003a0: 7c18 29be 5cdc 203f 5d96 283e dedd 18bf
000003b0: a869 10bf 0b2b 093f b5a7 36be cf3c 273f
000003c0: 8f6c 873e fd66 003f 1e96 273f 1b26 2cbf
000003d0: 7e64 8a3e a6bd 2e3e 0329 103f 57f0 b5be
000003e0: 79b1 eb3e 40e2 94be fab7 b6be b4b9 68be
000003f0: bbd1 03bf 42f4 20be ead0 29bd 536a 433f

l2.bias f4 [32]
0.019471088 -0.11819373 -0.17553708 0.16694027 -0.11877087 0.26046416 -0.04311595 0.3309933
-0.10866821 -0.07516956 0.068036884 0.277582 -0.018753015 0.44848007 0.4858614 0.004000185
0.0014587287 -0.32414848 0.47866693 0.03830349 0.07010982 0.08355952 0.01566407 -0.021886462
-0.09463039 0.29954883 -0.22767405 0.21979243 0.12544328 0.2842846 0.08039591 0.27386448
00000000: d581 9f3c 8e0f f2bd febf 33be 64f2 2a3e
00000010: 243e f3bd 8f5b 853e 5a9a 30bd f477 a93e
00000020: 708d debd 80f2 99bd ec56 8b3d 3a1f 8e3e
00000030: ec9f 99bc 2e9f e53e d3c2 f83e fc13 833b
00000040: d032 bf3a caf6 a5be d513 f53e 1fe4 1c3d
00000050: bd95 8f3d 4121 ab3d f051 803c 3d4b b3bc
00000060: 94cd c1bd 775e 993e 6323 69be 4411 613e
00000070: 3474 003e c08d 913e 9ca6 a43d f737 8c3e

l3.weight f4 [47, 32]
-0.40355417 -0.066534735 0.14238003 -0.1820922 0.039158925 0.15052432 -0.016379012 0.2689043
-0.15847795 0.34267184 -0.33164656 0.2421827 -0.14922579 -0.16223113 0.14375171 -0.29563102
-0.20003645 -0.3636729 -0.10140242 -0.13099563 -0.033565067 0.42733514 0.17831707 -0.21078269
-0.31871295 -0.03184831 -0.25214484 0.103445314 -0.47392094 -0.11624428 -0.19413304 0.34588793
-0.39696738 -0.14211287 -0.20649378 -0.55006945 0.13255893 0.3467059 -0.6584633 -0.08862574
0.0742209 -0.54047894 0.26089302 -0.66665566 -0.5763932 -0.163448 0.14462028 -0.052893016
0.019250574 -0.42643532 0.20088816 -0.07645127 0.26773253 0.87667924 -0.6360607 -0.81989557
-0.8417544 0.29973137 0.31759718 -0.6626808 -0.83300704 0.2403182 0.2978905 0.11540966
0.29202116 -0.20171708 0.25305873 -0.23689301 -0.023423657 0.28656593 -0.005492726 0.100643106
-0.5768955 0.33168182 -0.768603 -0.6356828 -0.86088103 0.12943956 0.52958834 -0.49517703
-0.2838203 -0.71712667 -0.061502244 -0.4362032 -0.64535546 -2.21884 -0.17199785 0.2769478
-0.9134389 0.43551913 -0.6388896 0.23449038 0.24761608 0.22008847 -0.4327055 0.4030654
-0.7200197 -0.17897409 0.118800335 0.32769358 -0.088240534 0.26595384 -0.2615324 0.1957108
-0.18032245 -0.8509139 -0.22974616 -1.0027683 -0.63972163 -0.6487771 0.13276854 -0.72158146
-0.60431063 0.19127333 -0.0125394305 -0.23062283 0.19639972 0.13042408 0.07922718 -0.75788236
-0.4750523 0.27260438 0.06354017 -0.05722423 0.013988225 0.3495009 -0.5445703 0.3795263
-0.11904594 0.045174044 0.16748932 -0.40687704 0.059890985 0.21827099 -0.11581063 -0.055506933
0.10304687 -0.13231331 0.25111026 -0.86533046 -0.7278971 -0.7068243 -0.033901893 0.17988653
0.3257109 0.08830917 -0.12921546 -0.09536195 0.1366202 0.09276905 -0.12853712 -0.050654102
-0.06899062 0.068405256 0.38196716 -0.0695049 -0.701132 -0.16170207 0.3219865 -0.100990534
-0.13656843 0.05982709 0.119269975 0.2928152 -0.1491497 0.103633955 0.12288813 -0.20139673
0.10886674 -0.33089235 -0.07757245 -0.82447267 -0.6855654 -0.73801225 0.08789693 -0.09889067
-0.05799849 0.2324355 -0.29589152 -0.12530956 0.10643416 -1.8885542 0.34932125 -0.08968371
-0.41354674 -0.030135673 -0.105087124 0.11626578 -0.14073284 0.022215238 -0.14100909 0.33036336
0.2571009 -0.12573937 0.14529036 -0.29685205 0.13079028 0.27543318 0.2834341 -0.5225175
0.33497345 -0.43178076 -0.057892796 -0.2818693 -0.42480534 -0.20121077 -0.08164634 0.28169352
0.24769685 0.20294224 -0.66766447 0.1391198 -0.21651202 -1.957741 -0.14463145 0.24504203
0.23397511 -0.44944543 0.21804745 -0.10818012 -0.3111663 -0.5678039 0.06687105 -0.26172048
0.21034245 -0.04215266 0.22268242 -0.60516214 -0.026987433 0.1549864 0.24553847 -0.1484199
0.14153863 -0.0136743 0.3896978 -0.07554545 -0.36307043 -0.64499193 0.053190626 -0.0041051963
-0.028229807 0.21733835 0.02334359 -0.58801574 -0.40791112 -1.0273585 0.08906784 0.18416524
0.118907616 -0.00888014 -0.43056503 0.25081712 -0.7529753 -0.5186828 0.05890228 -0.38105744
00000000: a79e cebe 5d43 88bd 12cc 113e 6176 3abe
00000010: 1c65 203d 0c23 1a3e 472d 86bc d3ad 893e
00000020: 0b48 22be af72 af3e 94cd a9be befe 773e
00000030: a5ce 18be eb1f 26be a633 133e f35c 97be
00000040: 5bd6 4cbe 5633 babe 12ac cfbd b823 06be
00000050: 867b 09bd accb da3e c098 363e 6bd7 57be
00000060: 582e a3be 6073 02bd 2119 81be 23db d33d
00000070: c4a5 f2be 7b11 eebd d0ca 46be 3918 b13e
00000080: 4f3f cbbe 0986 11be 1b73 53be 5ad1 0cbf
00000090: 87bd 073e 7083 b13e 0d91 28bf 6981 b5bd
000000a0: 2101 983d d45c 0abf c593 853e f2a9 2abf
000000b0: 818e 13bf ea5e 27be 5717 143e 59a6 58bd
000000c0: 61b3 9d3c bb55 dabe a0b5 4d3e 7c92 9cbd
000000d0: 3d14 893e 0d6e 603f e0d4 22bf ade4 51bf
000000e0: 377d 57bf 6476 993e 199c a23e 73a5 29bf
000000f0: f33f 55bf f915 763e 1b85 983e e65b ec3d
00000100: cc83 953e ec8e 4ebe ea90 813e 1594 72be
00000110: f8e2 bfbc c5b8 923e 53fc b3bb f91d ce3d
00000120: 6caf 13bf 33d2 a93e 2bc3 44bf 1cbc 22bf
00000130: b362 5cbf ce8b 043e 1a93 073f d887 fdbe
00000140: e550 91be 9d95 37bf c7e9 7bbd 0756 dfbe
00000150: 0436 25bf 7901 0ec0 3420 30be 1acc 8d3e
00000160: 22d7 69bf 5dfc de3e 458e 23bf 3f1e 703e
00000170: 128f 7d3e df5e 613e 938b ddbe 975e ce3e
00000180: 3653 38bf fc44 37be 974d f33d 74c7 a73e
00000190: 74b7 b4bd 1a2b 883e 93e7 85be 6968 483e
000001a0: 73a6 38be 7ed5 59bf 9442 6bbe b65a 80bf
000001b0: ccc4 23bf 4216 26bf 7af4 073e 90b9 38bf
000001c0: 1ab4 1abf 28dd 433e 2f72 4dbc 6428 6cbe
000001d0: 021d 493e e48d 053e dc41 a23d 9404 42bf
000001e0: 0e3a f3be cd92 8b3e 5921 823d f463 6abd
000001f0: de2e 653c c8f1 b23e f668 0bbf 4551 c23e
00000200: 5cce f3bd 6b08 393d 5282 2b3e 3052 d0be
00000210: 4050 753d 6e82 5f3e 202e edbd 3d5b 63bd
00000220: 3d0a d33d 247d 07be 8691 803e 4c86 5dbf
00000230: 7757 3abf 70f2 34bf b6dc 0abd 2d34 383e
00000240: 94c3 a63e 70db b43d 0f51 04be 204d c3bd
00000250: 2ae6 0b3e b3fd bd3d 3c9f 03be ad7a 4fbd
00000260: f44a 8dbd 0e18 8c3d 3391 c33e 9658 8ebd
00000270: 637d 33bf 3a95 25be 6adb a43e 20d4 cebd
00000280: 98d8 0bbe 400d 753d d143 f43d e0eb 953e
00000290: b3ba 18be 0a3e d43d c6ac fb3d f23a 4ebe
000002a0: 86f5 de3d b96a a9be 4ede 9ebd a410 53bf
000002b0: 3781 2fbf 5fee 3cbf 4e03 b43d 3187 cabd
000002c0: d38f 6dbd 9203 6e3e 187f 97be 2651 00be
000002d0: 27fa d93d 25bc f1bf 3cda b23e 18ac b7bd
000002e0: 66bc d3be 16df f6bc eb37 d7bd c11c ee3d
000002f0: 451c 10be bbfc b53c b064 10be 6325 a93e
00000300: bba2 833e d2c1 00be ffc6 143e fefc 97be
00000310: e3ed 053e 9405 8d3e 461e 913e b5c3 05bf
00000320: a481 ab3e 5e12 ddbe ff20 6dbd 2c51 90be
00000330: 1680 d9be 320a 4ebe 3236 a7bd 223a 903e
00000340: 3ea4 7d3e 17d0 4f3e 0fec 2abf 6c75 0e3e
00000350: 54b5 5dbe 4297 fabf 441a 14be 4cec 7a3e
00000360: 2c97 6f3e b61d e6be d547 5f3e 8a8d ddbd
00000370: 3051 9fbe 995b 11bf b0f3 883d 3a00 86be
00000380: 0364 573e 45a8 2cbd dc06 643e e8eb 1abf
00000390: c014 ddbc c1b4 1e3e 706e 7b3e 63fb 17be
000003a0: 81ef 103e 2c0a 60bc 7886 c73e 93b7 9abd
000003b0: 5ee4 b9be 311e 25bf 6ade 593d e284 86bb
000003c0: 3242 e7bc f28d 5e3e 0e3b bf3c 3388 16bf
000003d0: bad9 d0be 7c80 83bf 3369 b63d d095 3c3e
000003e0: d685 f33d 027e 11bc 0573 dcbe 1a6b 803e
000003f0: fdc2 40bf 65c8 04bf 8443 713d f619 c3be

l3.bias f4 [47]
0.17066222 -0.053646624 0.023633355 -0.07324624 -0.12865855 -0.054638974 -0.19367568 -0.17603779
0.050881457 -0.23895305 -0.12904826 -0.06481502 -0.07447445 -0.2427092 0.24194904 0.026952593
0.30041534 0.09203086 0.11621985 0.11400942 -0.10608362 -0.09866917 0.048021574 -0.08881382
0.08538677 0.14315882 -0.04033036 0.02504402 0.09997383 0.00733689 0.04359961 -0.042023186
0.013471838 0.06501002 -0.12380005 -0.11019499 0.0005506704 -0.26468778 -0.10221486 0.12001259
-0.08481285 -0.17823295 0.09781937 -0.0010355532 0.23156212 0.16310109 0.058241375
00000000: 14c2 2e3e 90bc 5bbd bd9a c13c 2002 96bd
00000010: 11bf 03be 1ecd 5fbd eb52 46be 4043 34be
00000020: 1369 503d 1cb0 74be 3a25 04be bdbd 84bd
00000030: 0f86 98bd c388 78be 7dc1 773e afcb dc3c
00000040: 0ad0 993e ad7a bc3d ac04 ee3d c57d e93d
00000050: 5e42 d9bd 1013 cabd 45b2 443d 05e4 b5bd
00000060: 42df ae3d 3a98 123e 7331 25bd 1e29 cd3c
00000070: 14bf cc3d 4b6a f03b 8195 323d 8120 2cbd
00000080: fcb8 5c3c f923 853d e18a fdbd e9ad e1bd
00000090: dd5a 103a 2885 87be 0656 d1bd 29c9 f53d
000000a0: 5cb2 adbd b382 36be 8655 c83d 66bb 87ba
000000b0: 9f1e 6d3e f903 273e 828e 6e3d
